{"format": "graph-model", "generatedBy": "2.8.0", "convertedBy": "TensorFlow.js Converter v3.15.0", "signature": {"inputs": {"input_tensor": {"name": "input_tensor:0", "dtype": "DT_UINT8", "tensorShape": {"dim": [{"size": "1"}, {"size": "-1"}, {"size": "-1"}, {"size": "3"}]}}}, "outputs": {"Identity_2:0": {"name": "Identity_2:0", "dtype": "DT_FLOAT", "tensorShape": {"dim": [{"size": "1"}, {"size": "100"}]}}, "Identity_3:0": {"name": "Identity_3:0", "dtype": "DT_FLOAT", "tensorShape": {"dim": [{"size": "1"}, {"size": "100"}, {"size": "4"}]}}, "Identity_6:0": {"name": "Identity_6:0", "dtype": "DT_FLOAT", "tensorShape": {"dim": [{"size": "1"}, {"size": "12804"}, {"size": "4"}]}}, "Identity_4:0": {"name": "Identity_4:0", "dtype": "DT_FLOAT", "tensorShape": {"dim": [{"size": "1"}, {"size": "100"}]}}, "num_detections": {"name": "Identity_5:0", "dtype": "DT_FLOAT", "tensorShape": {"dim": [{"size": "1"}]}}, "Identity_1:0": {"name": "Identity_1:0", "dtype": "DT_FLOAT", "tensorShape": {"dim": [{"size": "1"}, {"size": "100"}, {"size": "4"}]}}, "Identity:0": {"name": "Identity:0", "dtype": "DT_FLOAT", "tensorShape": {"dim": [{"size": "1"}, {"size": "100"}]}}, "Identity_7:0": {"name": "Identity_7:0", "dtype": "DT_FLOAT", "tensorShape": {"dim": [{"size": "1"}, {"size": "12804"}, {"size": "4"}]}}}}, "modelTopology": {"node": [{"name": "StatefulPartitionedCall/Postprocessor/BatchMultiClassNonMaxSuppression/PadOrClipBoxList/zeros_7", "op": "Const", "attr": {"value": {"tensor": {"dtype": "DT_INT32", "tensorShape": {"dim": [{"size": "1"}]}}}, "dtype": {"type": "DT_INT32"}}}, {"name": "StatefulPartitionedCall/Postprocessor/BatchMultiClassNonMaxSuppression/PadOrClipBoxList/sub_13/x", "op": "Const", "attr": {"value": {"tensor": {"dtype": "DT_INT32", "tensorShape": {}}}, "dtype": {"type": "DT_INT32"}}}, {"name": "StatefulPartitionedCall/Postprocessor/BatchMultiClassNonMaxSuppression/PadOrClipBoxList/zeros_6", "op": "Const", "attr": {"dtype": {"type": "DT_INT32"}, "value": {"tensor": {"dtype": "DT_INT32", "tensorShape": {"dim": [{"size": "1"}]}}}}}, {"name": "StatefulPartitionedCall/Postprocessor/BatchMultiClassNonMaxSuppression/MultiClassNonMaxSuppression/Gather/GatherV2_3/axis", "op": "Const", "attr": {"value": {"tensor": {"dtype": "DT_INT32", "tensorShape": {}}}, "dtype": {"type": "DT_INT32"}}}, {"name": "StatefulPartitionedCall/Postprocessor/BatchMultiClassNonMaxSuppression/MultiClassNonMaxSuppression/Gather_1/GatherV2_3/axis", "op": "Const", "attr": {"value": {"tensor": {"dtype": "DT_INT32", "tensorShape": {}}}, "dtype": {"type": "DT_INT32"}}}, {"name": "StatefulPartitionedCall/Postprocessor/BatchMultiClassNonMaxSuppression/Reshape_3", "op": "Const", "attr": {"value": {"tensor": {"dtype": "DT_FLOAT", "tensorShape": {"dim": [{"size": "12804"}]}}}, "dtype": {"type": "DT_FLOAT"}}}, {"name": "StatefulPartitionedCall/Postprocessor/BatchMultiClassNonMaxSuppression/MultiClassNonMaxSuppression/Gather_2/GatherV2_3/axis", "op": "Const", "attr": {"value": {"tensor": {"dtype": "DT_INT32", "tensorShape": {}}}, "dtype": {"type": "DT_INT32"}}}, {"name": "StatefulPartitionedCall/Postprocessor/BatchMultiClassNonMaxSuppression/MultiClassNonMaxSuppression/Concatenate/concat_3/axis", "op": "Const", "attr": {"value": {"tensor": {"dtype": "DT_INT32", "tensorShape": {}}}, "dtype": {"type": "DT_INT32"}}}, {"name": "StatefulPartitionedCall/Postprocessor/BatchMultiClassNonMaxSuppression/MultiClassNonMaxSuppression/SortByField/Gather/GatherV2_3/axis", "op": "Const", "attr": {"value": {"tensor": {"dtype": "DT_INT32", "tensorShape": {}}}, "dtype": {"type": "DT_INT32"}}}, {"name": "StatefulPartitionedCall/Postprocessor/BatchMultiClassNonMaxSuppression/MultiClassNonMaxSuppression/ClipToWindow/Gather/GatherV2_3/axis", "op": "Const", "attr": {"dtype": {"type": "DT_INT32"}, "value": {"tensor": {"dtype": "DT_INT32", "tensorShape": {}}}}}, {"name": "StatefulPartitionedCall/Postprocessor/BatchMultiClassNonMaxSuppression/MultiClassNonMaxSuppression/SortByField_1/Gather/GatherV2_3/axis", "op": "Const", "attr": {"dtype": {"type": "DT_INT32"}, "value": {"tensor": {"dtype": "DT_INT32", "tensorShape": {}}}}}, {"name": "StatefulPartitionedCall/Postprocessor/BatchMultiClassNonMaxSuppression/MultiClassNonMaxSuppression/Gather_3/GatherV2_3/axis", "op": "Const", "attr": {"dtype": {"type": "DT_INT32"}, "value": {"tensor": {"dtype": "DT_INT32", "tensorShape": {}}}}}, {"name": "StatefulPartitionedCall/Postprocessor/BatchMultiClassNonMaxSuppression/MultiClassNonMaxSuppression/Gather_4/GatherV2_3/axis", "op": "Const", "attr": {"dtype": {"type": "DT_INT32"}, "value": {"tensor": {"dtype": "DT_INT32", "tensorShape": {}}}}}, {"name": "StatefulPartitionedCall/Postprocessor/BatchMultiClassNonMaxSuppression/PadOrClipBoxList/strided_slice_12/stack", "op": "Const", "attr": {"value": {"tensor": {"dtype": "DT_INT32", "tensorShape": {"dim": [{"size": "1"}]}}}, "dtype": {"type": "DT_INT32"}}}, {"name": "StatefulPartitionedCall/Postprocessor/BatchMultiClassNonMaxSuppression/PadOrClipBoxList/strided_slice_12/stack_1", "op": "Const", "attr": {"dtype": {"type": "DT_INT32"}, "value": {"tensor": {"dtype": "DT_INT32", "tensorShape": {"dim": [{"size": "1"}]}}}}}, {"name": "StatefulPartitionedCall/Postprocessor/BatchMultiClassNonMaxSuppression/PadOrClipBoxList/strided_slice_12/stack_2", "op": "Const", "attr": {"value": {"tensor": {"dtype": "DT_INT32", "tensorShape": {"dim": [{"size": "1"}]}}}, "dtype": {"type": "DT_INT32"}}}, {"name": "StatefulPartitionedCall/Postprocessor/BatchMultiClassNonMaxSuppression/PadOrClipBoxList/sub_12/y", "op": "Const", "attr": {"value": {"tensor": {"dtype": "DT_INT32", "tensorShape": {}}}, "dtype": {"type": "DT_INT32"}}}, {"name": "StatefulPartitionedCall/Postprocessor/BatchMultiClassNonMaxSuppression/PadOrClipBoxList/Greater_6/y", "op": "Const", "attr": {"value": {"tensor": {"dtype": "DT_INT32", "tensorShape": {}}}, "dtype": {"type": "DT_INT32"}}}, {"name": "StatefulPartitionedCall/Postprocessor/BatchMultiClassNonMaxSuppression/PadOrClipBoxList/Select_6/t", "op": "Const", "attr": {"value": {"tensor": {"dtype": "DT_INT32", "tensorShape": {}}}, "dtype": {"type": "DT_INT32"}}}, {"name": "StatefulPartitionedCall/Postprocessor/BatchMultiClassNonMaxSuppression/PadOrClipBoxList/Select_6/e", "op": "Const", "attr": {"dtype": {"type": "DT_INT32"}, "value": {"tensor": {"dtype": "DT_INT32", "tensorShape": {}}}}}, {"name": "StatefulPartitionedCall/Postprocessor/BatchMultiClassNonMaxSuppression/PadOrClipBoxList/strided_slice_13/stack", "op": "Const", "attr": {"value": {"tensor": {"dtype": "DT_INT32", "tensorShape": {"dim": [{"size": "1"}]}}}, "dtype": {"type": "DT_INT32"}}}, {"name": "StatefulPartitionedCall/Postprocessor/BatchMultiClassNonMaxSuppression/PadOrClipBoxList/strided_slice_13/stack_1", "op": "Const", "attr": {"dtype": {"type": "DT_INT32"}, "value": {"tensor": {"dtype": "DT_INT32", "tensorShape": {"dim": [{"size": "1"}]}}}}}, {"name": "StatefulPartitionedCall/Postprocessor/BatchMultiClassNonMaxSuppression/PadOrClipBoxList/strided_slice_13/stack_2", "op": "Const", "attr": {"dtype": {"type": "DT_INT32"}, "value": {"tensor": {"dtype": "DT_INT32", "tensorShape": {"dim": [{"size": "1"}]}}}}}, {"name": "StatefulPartitionedCall/Postprocessor/BatchMultiClassNonMaxSuppression/PadOrClipBoxList/zeros_1", "op": "Const", "attr": {"value": {"tensor": {"dtype": "DT_INT32", "tensorShape": {"dim": [{"size": "2"}]}}}, "dtype": {"type": "DT_INT32"}}}, {"name": "StatefulPartitionedCall/Postprocessor/BatchMultiClassNonMaxSuppression/PadOrClipBoxList/sub_2/x", "op": "Const", "attr": {"dtype": {"type": "DT_INT32"}, "value": {"tensor": {"dtype": "DT_INT32", "tensorShape": {}}}}}, {"name": "StatefulPartitionedCall/Postprocessor/BatchMultiClassNonMaxSuppression/PadOrClipBoxList/strided_slice_2/stack", "op": "Const", "attr": {"dtype": {"type": "DT_INT32"}, "value": {"tensor": {"dtype": "DT_INT32", "tensorShape": {"dim": [{"size": "1"}]}}}}}, {"name": "StatefulPartitionedCall/Postprocessor/BatchMultiClassNonMaxSuppression/PadOrClipBoxList/strided_slice_2/stack_1", "op": "Const", "attr": {"dtype": {"type": "DT_INT32"}, "value": {"tensor": {"dtype": "DT_INT32", "tensorShape": {"dim": [{"size": "1"}]}}}}}, {"name": "StatefulPartitionedCall/Postprocessor/BatchMultiClassNonMaxSuppression/PadOrClipBoxList/strided_slice_2/stack_2", "op": "Const", "attr": {"value": {"tensor": {"dtype": "DT_INT32", "tensorShape": {"dim": [{"size": "1"}]}}}, "dtype": {"type": "DT_INT32"}}}, {"name": "StatefulPartitionedCall/Postprocessor/BatchMultiClassNonMaxSuppression/PadOrClipBoxList/sub_3/x", "op": "Const", "attr": {"value": {"tensor": {"dtype": "DT_INT32", "tensorShape": {}}}, "dtype": {"type": "DT_INT32"}}}, {"name": "StatefulPartitionedCall/Postprocessor/BatchMultiClassNonMaxSuppression/PadOrClipBoxList/zeros", "op": "Const", "attr": {"value": {"tensor": {"dtype": "DT_INT32", "tensorShape": {"dim": [{"size": "2"}]}}}, "dtype": {"type": "DT_INT32"}}}, {"name": "StatefulPartitionedCall/Postprocessor/BatchMultiClassNonMaxSuppression/PadOrClipBoxList/strided_slice/stack", "op": "Const", "attr": {"value": {"tensor": {"dtype": "DT_INT32", "tensorShape": {"dim": [{"size": "1"}]}}}, "dtype": {"type": "DT_INT32"}}}, {"name": "StatefulPartitionedCall/Postprocessor/BatchMultiClassNonMaxSuppression/PadOrClipBoxList/strided_slice/stack_1", "op": "Const", "attr": {"dtype": {"type": "DT_INT32"}, "value": {"tensor": {"dtype": "DT_INT32", "tensorShape": {"dim": [{"size": "1"}]}}}}}, {"name": "StatefulPartitionedCall/Postprocessor/BatchMultiClassNonMaxSuppression/PadOrClipBoxList/strided_slice/stack_2", "op": "Const", "attr": {"value": {"tensor": {"dtype": "DT_INT32", "tensorShape": {"dim": [{"size": "1"}]}}}, "dtype": {"type": "DT_INT32"}}}, {"name": "StatefulPartitionedCall/Postprocessor/BatchMultiClassNonMaxSuppression/PadOrClipBoxList/sub/y", "op": "Const", "attr": {"value": {"tensor": {"dtype": "DT_INT32", "tensorShape": {}}}, "dtype": {"type": "DT_INT32"}}}, {"name": "StatefulPartitionedCall/Postprocessor/BatchMultiClassNonMaxSuppression/PadOrClipBoxList/Greater/y", "op": "Const", "attr": {"dtype": {"type": "DT_INT32"}, "value": {"tensor": {"dtype": "DT_INT32", "tensorShape": {}}}}}, {"name": "StatefulPartitionedCall/Postprocessor/BatchMultiClassNonMaxSuppression/PadOrClipBoxList/Select/t", "op": "Const", "attr": {"value": {"tensor": {"dtype": "DT_INT32", "tensorShape": {}}}, "dtype": {"type": "DT_INT32"}}}, {"name": "StatefulPartitionedCall/Postprocessor/BatchMultiClassNonMaxSuppression/PadOrClipBoxList/Select/e", "op": "Const", "attr": {"dtype": {"type": "DT_INT32"}, "value": {"tensor": {"dtype": "DT_INT32", "tensorShape": {}}}}}, {"name": "StatefulPartitionedCall/Postprocessor/BatchMultiClassNonMaxSuppression/MultiClassNonMaxSuppression/Gather_3/GatherV2_6/axis", "op": "Const", "attr": {"value": {"tensor": {"dtype": "DT_INT32", "tensorShape": {}}}, "dtype": {"type": "DT_INT32"}}}, {"name": "StatefulPartitionedCall/Postprocessor/BatchMultiClassNonMaxSuppression/MultiClassNonMaxSuppression/Gather_4/GatherV2_6/axis", "op": "Const", "attr": {"dtype": {"type": "DT_INT32"}, "value": {"tensor": {"dtype": "DT_INT32", "tensorShape": {}}}}}, {"name": "StatefulPartitionedCall/Postprocessor/BatchMultiClassNonMaxSuppression/PadOrClipBoxList/strided_slice_1/stack", "op": "Const", "attr": {"dtype": {"type": "DT_INT32"}, "value": {"tensor": {"dtype": "DT_INT32", "tensorShape": {"dim": [{"size": "1"}]}}}}}, {"name": "StatefulPartitionedCall/Postprocessor/BatchMultiClassNonMaxSuppression/PadOrClipBoxList/strided_slice_1/stack_1", "op": "Const", "attr": {"dtype": {"type": "DT_INT32"}, "value": {"tensor": {"dtype": "DT_INT32", "tensorShape": {"dim": [{"size": "1"}]}}}}}, {"name": "StatefulPartitionedCall/Postprocessor/BatchMultiClassNonMaxSuppression/PadOrClipBoxList/strided_slice_1/stack_2", "op": "Const", "attr": {"value": {"tensor": {"dtype": "DT_INT32", "tensorShape": {"dim": [{"size": "1"}]}}}, "dtype": {"type": "DT_INT32"}}}, {"name": "StatefulPartitionedCall/Postprocessor/BatchMultiClassNonMaxSuppression/PadOrClipBoxList/sub_1/y", "op": "Const", "attr": {"dtype": {"type": "DT_INT32"}, "value": {"tensor": {"dtype": "DT_INT32", "tensorShape": {}}}}}, {"name": "StatefulPartitionedCall/Postprocessor/BatchMultiClassNonMaxSuppression/PadOrClipBoxList/Greater_1/y", "op": "Const", "attr": {"value": {"tensor": {"dtype": "DT_INT32", "tensorShape": {}}}, "dtype": {"type": "DT_INT32"}}}, {"name": "StatefulPartitionedCall/Postprocessor/BatchMultiClassNonMaxSuppression/PadOrClipBoxList/Select_1/t", "op": "Const", "attr": {"dtype": {"type": "DT_INT32"}, "value": {"tensor": {"dtype": "DT_INT32", "tensorShape": {}}}}}, {"name": "StatefulPartitionedCall/Postprocessor/BatchMultiClassNonMaxSuppression/PadOrClipBoxList/Select_1/e", "op": "Const", "attr": {"dtype": {"type": "DT_INT32"}, "value": {"tensor": {"dtype": "DT_INT32", "tensorShape": {}}}}}, {"name": "StatefulPartitionedCall/Postprocessor/BatchMultiClassNonMaxSuppression/PadOrClipBoxList/strided_slice_3/stack", "op": "Const", "attr": {"value": {"tensor": {"dtype": "DT_INT32", "tensorShape": {"dim": [{"size": "1"}]}}}, "dtype": {"type": "DT_INT32"}}}, {"name": "StatefulPartitionedCall/Postprocessor/BatchMultiClassNonMaxSuppression/PadOrClipBoxList/strided_slice_3/stack_1", "op": "Const", "attr": {"value": {"tensor": {"dtype": "DT_INT32", "tensorShape": {"dim": [{"size": "1"}]}}}, "dtype": {"type": "DT_INT32"}}}, {"name": "StatefulPartitionedCall/Postprocessor/BatchMultiClassNonMaxSuppression/PadOrClipBoxList/strided_slice_3/stack_2", "op": "Const", "attr": {"dtype": {"type": "DT_INT32"}, "value": {"tensor": {"dtype": "DT_INT32", "tensorShape": {"dim": [{"size": "1"}]}}}}}, {"name": "StatefulPartitionedCall/Postprocessor/BatchMultiClassNonMaxSuppression/PadOrClipBoxList/zeros_11", "op": "Const", "attr": {"value": {"tensor": {"dtype": "DT_INT32", "tensorShape": {"dim": [{"size": "1"}]}}}, "dtype": {"type": "DT_INT32"}}}, {"name": "StatefulPartitionedCall/Postprocessor/BatchMultiClassNonMaxSuppression/PadOrClipBoxList/sub_19/x", "op": "Const", "attr": {"dtype": {"type": "DT_INT32"}, "value": {"tensor": {"dtype": "DT_INT32", "tensorShape": {}}}}}, {"name": "StatefulPartitionedCall/Postprocessor/BatchMultiClassNonMaxSuppression/PadOrClipBoxList/zeros_10", "op": "Const", "attr": {"value": {"tensor": {"dtype": "DT_INT32", "tensorShape": {"dim": [{"size": "1"}]}}}, "dtype": {"type": "DT_INT32"}}}, {"name": "StatefulPartitionedCall/Postprocessor/BatchMultiClassNonMaxSuppression/MultiClassNonMaxSuppression/Concatenate/concat_5", "op": "Const", "attr": {"value": {"tensor": {"dtype": "DT_FLOAT", "tensorShape": {"dim": [{"size": "300"}]}}}, "dtype": {"type": "DT_FLOAT"}}}, {"name": "StatefulPartitionedCall/Postprocessor/BatchMultiClassNonMaxSuppression/MultiClassNonMaxSuppression/SortByField/Gather/GatherV2_5/axis", "op": "Const", "attr": {"dtype": {"type": "DT_INT32"}, "value": {"tensor": {"dtype": "DT_INT32", "tensorShape": {}}}}}, {"name": "StatefulPartitionedCall/Postprocessor/BatchMultiClassNonMaxSuppression/MultiClassNonMaxSuppression/ClipToWindow/Gather/GatherV2_5/axis", "op": "Const", "attr": {"dtype": {"type": "DT_INT32"}, "value": {"tensor": {"dtype": "DT_INT32", "tensorShape": {}}}}}, {"name": "StatefulPartitionedCall/Postprocessor/BatchMultiClassNonMaxSuppression/MultiClassNonMaxSuppression/SortByField_1/Gather/GatherV2_5/axis", "op": "Const", "attr": {"value": {"tensor": {"dtype": "DT_INT32", "tensorShape": {}}}, "dtype": {"type": "DT_INT32"}}}, {"name": "StatefulPartitionedCall/Postprocessor/BatchMultiClassNonMaxSuppression/MultiClassNonMaxSuppression/Gather_3/GatherV2_5/axis", "op": "Const", "attr": {"value": {"tensor": {"dtype": "DT_INT32", "tensorShape": {}}}, "dtype": {"type": "DT_INT32"}}}, {"name": "StatefulPartitionedCall/Postprocessor/BatchMultiClassNonMaxSuppression/MultiClassNonMaxSuppression/Gather_4/GatherV2_5/axis", "op": "Const", "attr": {"dtype": {"type": "DT_INT32"}, "value": {"tensor": {"dtype": "DT_INT32", "tensorShape": {}}}}}, {"name": "StatefulPartitionedCall/Postprocessor/BatchMultiClassNonMaxSuppression/PadOrClipBoxList/strided_slice_18/stack", "op": "Const", "attr": {"dtype": {"type": "DT_INT32"}, "value": {"tensor": {"dtype": "DT_INT32", "tensorShape": {"dim": [{"size": "1"}]}}}}}, {"name": "StatefulPartitionedCall/Postprocessor/BatchMultiClassNonMaxSuppression/PadOrClipBoxList/strided_slice_18/stack_1", "op": "Const", "attr": {"dtype": {"type": "DT_INT32"}, "value": {"tensor": {"dtype": "DT_INT32", "tensorShape": {"dim": [{"size": "1"}]}}}}}, {"name": "StatefulPartitionedCall/Postprocessor/BatchMultiClassNonMaxSuppression/PadOrClipBoxList/strided_slice_18/stack_2", "op": "Const", "attr": {"value": {"tensor": {"dtype": "DT_INT32", "tensorShape": {"dim": [{"size": "1"}]}}}, "dtype": {"type": "DT_INT32"}}}, {"name": "StatefulPartitionedCall/Postprocessor/BatchMultiClassNonMaxSuppression/PadOrClipBoxList/sub_18/y", "op": "Const", "attr": {"dtype": {"type": "DT_INT32"}, "value": {"tensor": {"dtype": "DT_INT32", "tensorShape": {}}}}}, {"name": "StatefulPartitionedCall/Postprocessor/BatchMultiClassNonMaxSuppression/PadOrClipBoxList/Greater_9/y", "op": "Const", "attr": {"value": {"tensor": {"dtype": "DT_INT32", "tensorShape": {}}}, "dtype": {"type": "DT_INT32"}}}, {"name": "StatefulPartitionedCall/Postprocessor/BatchMultiClassNonMaxSuppression/PadOrClipBoxList/Select_9/t", "op": "Const", "attr": {"value": {"tensor": {"dtype": "DT_INT32", "tensorShape": {}}}, "dtype": {"type": "DT_INT32"}}}, {"name": "StatefulPartitionedCall/Postprocessor/BatchMultiClassNonMaxSuppression/PadOrClipBoxList/Select_9/e", "op": "Const", "attr": {"value": {"tensor": {"dtype": "DT_INT32", "tensorShape": {}}}, "dtype": {"type": "DT_INT32"}}}, {"name": "StatefulPartitionedCall/Postprocessor/BatchMultiClassNonMaxSuppression/PadOrClipBoxList/strided_slice_19/stack", "op": "Const", "attr": {"value": {"tensor": {"dtype": "DT_INT32", "tensorShape": {"dim": [{"size": "1"}]}}}, "dtype": {"type": "DT_INT32"}}}, {"name": "StatefulPartitionedCall/Postprocessor/BatchMultiClassNonMaxSuppression/PadOrClipBoxList/strided_slice_19/stack_1", "op": "Const", "attr": {"dtype": {"type": "DT_INT32"}, "value": {"tensor": {"dtype": "DT_INT32", "tensorShape": {"dim": [{"size": "1"}]}}}}}, {"name": "StatefulPartitionedCall/Postprocessor/BatchMultiClassNonMaxSuppression/PadOrClipBoxList/strided_slice_19/stack_2", "op": "Const", "attr": {"value": {"tensor": {"dtype": "DT_INT32", "tensorShape": {"dim": [{"size": "1"}]}}}, "dtype": {"type": "DT_INT32"}}}, {"name": "StatefulPartitionedCall/add/y", "op": "Const", "attr": {"dtype": {"type": "DT_FLOAT"}, "value": {"tensor": {"dtype": "DT_FLOAT", "tensorShape": {}}}}}, {"name": "StatefulPartitionedCall/Postprocessor/BatchMultiClassNonMaxSuppression/PadOrClipBoxList/zeros_9", "op": "Const", "attr": {"dtype": {"type": "DT_INT32"}, "value": {"tensor": {"dtype": "DT_INT32", "tensorShape": {"dim": [{"size": "2"}]}}}}}, {"name": "StatefulPartitionedCall/Postprocessor/BatchMultiClassNonMaxSuppression/PadOrClipBoxList/sub_16/x", "op": "Const", "attr": {"value": {"tensor": {"dtype": "DT_INT32", "tensorShape": {}}}, "dtype": {"type": "DT_INT32"}}}, {"name": "StatefulPartitionedCall/Postprocessor/BatchMultiClassNonMaxSuppression/PadOrClipBoxList/strided_slice_16/stack", "op": "Const", "attr": {"dtype": {"type": "DT_INT32"}, "value": {"tensor": {"dtype": "DT_INT32", "tensorShape": {"dim": [{"size": "1"}]}}}}}, {"name": "StatefulPartitionedCall/Postprocessor/BatchMultiClassNonMaxSuppression/PadOrClipBoxList/strided_slice_16/stack_1", "op": "Const", "attr": {"value": {"tensor": {"dtype": "DT_INT32", "tensorShape": {"dim": [{"size": "1"}]}}}, "dtype": {"type": "DT_INT32"}}}, {"name": "StatefulPartitionedCall/Postprocessor/BatchMultiClassNonMaxSuppression/PadOrClipBoxList/strided_slice_16/stack_2", "op": "Const", "attr": {"value": {"tensor": {"dtype": "DT_INT32", "tensorShape": {"dim": [{"size": "1"}]}}}, "dtype": {"type": "DT_INT32"}}}, {"name": "StatefulPartitionedCall/Postprocessor/BatchMultiClassNonMaxSuppression/PadOrClipBoxList/sub_17/x", "op": "Const", "attr": {"value": {"tensor": {"dtype": "DT_INT32", "tensorShape": {}}}, "dtype": {"type": "DT_INT32"}}}, {"name": "StatefulPartitionedCall/Postprocessor/BatchMultiClassNonMaxSuppression/PadOrClipBoxList/zeros_8", "op": "Const", "attr": {"dtype": {"type": "DT_INT32"}, "value": {"tensor": {"dtype": "DT_INT32", "tensorShape": {"dim": [{"size": "2"}]}}}}}, {"name": "StatefulPartitionedCall/Postprocessor/BatchMultiClassNonMaxSuppression/PadOrClipBoxList/strided_slice_14/stack", "op": "Const", "attr": {"value": {"tensor": {"dtype": "DT_INT32", "tensorShape": {"dim": [{"size": "1"}]}}}, "dtype": {"type": "DT_INT32"}}}, {"name": "StatefulPartitionedCall/Postprocessor/BatchMultiClassNonMaxSuppression/PadOrClipBoxList/strided_slice_14/stack_1", "op": "Const", "attr": {"dtype": {"type": "DT_INT32"}, "value": {"tensor": {"dtype": "DT_INT32", "tensorShape": {"dim": [{"size": "1"}]}}}}}, {"name": "StatefulPartitionedCall/Postprocessor/BatchMultiClassNonMaxSuppression/PadOrClipBoxList/strided_slice_14/stack_2", "op": "Const", "attr": {"value": {"tensor": {"dtype": "DT_INT32", "tensorShape": {"dim": [{"size": "1"}]}}}, "dtype": {"type": "DT_INT32"}}}, {"name": "StatefulPartitionedCall/Postprocessor/BatchMultiClassNonMaxSuppression/PadOrClipBoxList/sub_14/y", "op": "Const", "attr": {"value": {"tensor": {"dtype": "DT_INT32", "tensorShape": {}}}, "dtype": {"type": "DT_INT32"}}}, {"name": "StatefulPartitionedCall/Postprocessor/BatchMultiClassNonMaxSuppression/PadOrClipBoxList/Greater_7/y", "op": "Const", "attr": {"dtype": {"type": "DT_INT32"}, "value": {"tensor": {"dtype": "DT_INT32", "tensorShape": {}}}}}, {"name": "StatefulPartitionedCall/Postprocessor/BatchMultiClassNonMaxSuppression/PadOrClipBoxList/Select_7/t", "op": "Const", "attr": {"value": {"tensor": {"dtype": "DT_INT32", "tensorShape": {}}}, "dtype": {"type": "DT_INT32"}}}, {"name": "StatefulPartitionedCall/Postprocessor/BatchMultiClassNonMaxSuppression/PadOrClipBoxList/Select_7/e", "op": "Const", "attr": {"dtype": {"type": "DT_INT32"}, "value": {"tensor": {"dtype": "DT_INT32", "tensorShape": {}}}}}, {"name": "StatefulPartitionedCall/Postprocessor/BatchMultiClassNonMaxSuppression/MultiClassNonMaxSuppression/Gather/GatherV2_4/axis", "op": "Const", "attr": {"dtype": {"type": "DT_INT32"}, "value": {"tensor": {"dtype": "DT_INT32", "tensorShape": {}}}}}, {"name": "StatefulPartitionedCall/Postprocessor/BatchMultiClassNonMaxSuppression/MultiClassNonMaxSuppression/Gather_1/GatherV2_4/axis", "op": "Const", "attr": {"value": {"tensor": {"dtype": "DT_INT32", "tensorShape": {}}}, "dtype": {"type": "DT_INT32"}}}, {"name": "StatefulPartitionedCall/Postprocessor/BatchMultiClassNonMaxSuppression/MultiClassNonMaxSuppression/Gather_2/GatherV2_4/axis", "op": "Const", "attr": {"value": {"tensor": {"dtype": "DT_INT32", "tensorShape": {}}}, "dtype": {"type": "DT_INT32"}}}, {"name": "StatefulPartitionedCall/Postprocessor/BatchMultiClassNonMaxSuppression/MultiClassNonMaxSuppression/Concatenate/concat_4/axis", "op": "Const", "attr": {"value": {"tensor": {"dtype": "DT_INT32", "tensorShape": {}}}, "dtype": {"type": "DT_INT32"}}}, {"name": "StatefulPartitionedCall/Postprocessor/BatchMultiClassNonMaxSuppression/MultiClassNonMaxSuppression/SortByField/Gather/GatherV2_4/axis", "op": "Const", "attr": {"dtype": {"type": "DT_INT32"}, "value": {"tensor": {"dtype": "DT_INT32", "tensorShape": {}}}}}, {"name": "StatefulPartitionedCall/Postprocessor/BatchMultiClassNonMaxSuppression/MultiClassNonMaxSuppression/ClipToWindow/Gather/GatherV2_4/axis", "op": "Const", "attr": {"dtype": {"type": "DT_INT32"}, "value": {"tensor": {"dtype": "DT_INT32", "tensorShape": {}}}}}, {"name": "StatefulPartitionedCall/Postprocessor/BatchMultiClassNonMaxSuppression/MultiClassNonMaxSuppression/SortByField_1/Gather/GatherV2_4/axis", "op": "Const", "attr": {"value": {"tensor": {"dtype": "DT_INT32", "tensorShape": {}}}, "dtype": {"type": "DT_INT32"}}}, {"name": "StatefulPartitionedCall/Postprocessor/BatchMultiClassNonMaxSuppression/MultiClassNonMaxSuppression/Gather_3/GatherV2_4/axis", "op": "Const", "attr": {"dtype": {"type": "DT_INT32"}, "value": {"tensor": {"dtype": "DT_INT32", "tensorShape": {}}}}}, {"name": "StatefulPartitionedCall/Postprocessor/BatchMultiClassNonMaxSuppression/MultiClassNonMaxSuppression/Gather_4/GatherV2_4/axis", "op": "Const", "attr": {"value": {"tensor": {"dtype": "DT_INT32", "tensorShape": {}}}, "dtype": {"type": "DT_INT32"}}}, {"name": "StatefulPartitionedCall/Postprocessor/BatchMultiClassNonMaxSuppression/PadOrClipBoxList/strided_slice_15/stack", "op": "Const", "attr": {"dtype": {"type": "DT_INT32"}, "value": {"tensor": {"dtype": "DT_INT32", "tensorShape": {"dim": [{"size": "1"}]}}}}}, {"name": "StatefulPartitionedCall/Postprocessor/BatchMultiClassNonMaxSuppression/PadOrClipBoxList/strided_slice_15/stack_1", "op": "Const", "attr": {"value": {"tensor": {"dtype": "DT_INT32", "tensorShape": {"dim": [{"size": "1"}]}}}, "dtype": {"type": "DT_INT32"}}}, {"name": "StatefulPartitionedCall/Postprocessor/BatchMultiClassNonMaxSuppression/PadOrClipBoxList/strided_slice_15/stack_2", "op": "Const", "attr": {"value": {"tensor": {"dtype": "DT_INT32", "tensorShape": {"dim": [{"size": "1"}]}}}, "dtype": {"type": "DT_INT32"}}}, {"name": "StatefulPartitionedCall/Postprocessor/BatchMultiClassNonMaxSuppression/PadOrClipBoxList/sub_15/y", "op": "Const", "attr": {"dtype": {"type": "DT_INT32"}, "value": {"tensor": {"dtype": "DT_INT32", "tensorShape": {}}}}}, {"name": "StatefulPartitionedCall/Postprocessor/BatchMultiClassNonMaxSuppression/PadOrClipBoxList/Greater_8/y", "op": "Const", "attr": {"value": {"tensor": {"dtype": "DT_INT32", "tensorShape": {}}}, "dtype": {"type": "DT_INT32"}}}, {"name": "StatefulPartitionedCall/Postprocessor/BatchMultiClassNonMaxSuppression/PadOrClipBoxList/Select_8/t", "op": "Const", "attr": {"value": {"tensor": {"dtype": "DT_INT32", "tensorShape": {}}}, "dtype": {"type": "DT_INT32"}}}, {"name": "StatefulPartitionedCall/Postprocessor/BatchMultiClassNonMaxSuppression/PadOrClipBoxList/Select_8/e", "op": "Const", "attr": {"value": {"tensor": {"dtype": "DT_INT32", "tensorShape": {}}}, "dtype": {"type": "DT_INT32"}}}, {"name": "StatefulPartitionedCall/Postprocessor/BatchMultiClassNonMaxSuppression/PadOrClipBoxList/strided_slice_17/stack", "op": "Const", "attr": {"dtype": {"type": "DT_INT32"}, "value": {"tensor": {"dtype": "DT_INT32", "tensorShape": {"dim": [{"size": "1"}]}}}}}, {"name": "StatefulPartitionedCall/Postprocessor/BatchMultiClassNonMaxSuppression/PadOrClipBoxList/strided_slice_17/stack_1", "op": "Const", "attr": {"value": {"tensor": {"dtype": "DT_INT32", "tensorShape": {"dim": [{"size": "1"}]}}}, "dtype": {"type": "DT_INT32"}}}, {"name": "StatefulPartitionedCall/Postprocessor/BatchMultiClassNonMaxSuppression/PadOrClipBoxList/strided_slice_17/stack_2", "op": "Const", "attr": {"dtype": {"type": "DT_INT32"}, "value": {"tensor": {"dtype": "DT_INT32", "tensorShape": {"dim": [{"size": "1"}]}}}}}, {"name": "StatefulPartitionedCall/Postprocessor/BatchMultiClassNonMaxSuppression/PadOrClipBoxList/zeros_3", "op": "Const", "attr": {"value": {"tensor": {"dtype": "DT_INT32", "tensorShape": {"dim": [{"size": "1"}]}}}, "dtype": {"type": "DT_INT32"}}}, {"name": "StatefulPartitionedCall/Postprocessor/BatchMultiClassNonMaxSuppression/PadOrClipBoxList/sub_5/x", "op": "Const", "attr": {"dtype": {"type": "DT_INT32"}, "value": {"tensor": {"dtype": "DT_INT32", "tensorShape": {}}}}}, {"name": "StatefulPartitionedCall/Postprocessor/BatchMultiClassNonMaxSuppression/PadOrClipBoxList/zeros_2", "op": "Const", "attr": {"dtype": {"type": "DT_INT32"}, "value": {"tensor": {"dtype": "DT_INT32", "tensorShape": {"dim": [{"size": "1"}]}}}}}, {"name": "StatefulPartitionedCall/Postprocessor/BatchMultiClassNonMaxSuppression/MultiClassNonMaxSuppression/SortByField_1/Gather/GatherV2_1/axis", "op": "Const", "attr": {"value": {"tensor": {"dtype": "DT_INT32", "tensorShape": {}}}, "dtype": {"type": "DT_INT32"}}}, {"name": "StatefulPartitionedCall/Postprocessor/BatchMultiClassNonMaxSuppression/MultiClassNonMaxSuppression/range_3/start", "op": "Const", "attr": {"value": {"tensor": {"dtype": "DT_INT32", "tensorShape": {}}}, "dtype": {"type": "DT_INT32"}}}, {"name": "StatefulPartitionedCall/Postprocessor/BatchMultiClassNonMaxSuppression/MultiClassNonMaxSuppression/range_3/delta", "op": "Const", "attr": {"dtype": {"type": "DT_INT32"}, "value": {"tensor": {"dtype": "DT_INT32", "tensorShape": {}}}}}, {"name": "StatefulPartitionedCall/Postprocessor/BatchMultiClassNonMaxSuppression/MultiClassNonMaxSuppression/Gather_3/GatherV2_1/axis", "op": "Const", "attr": {"value": {"tensor": {"dtype": "DT_INT32", "tensorShape": {}}}, "dtype": {"type": "DT_INT32"}}}, {"name": "StatefulPartitionedCall/Postprocessor/BatchMultiClassNonMaxSuppression/MultiClassNonMaxSuppression/range_4/start", "op": "Const", "attr": {"value": {"tensor": {"dtype": "DT_INT32", "tensorShape": {}}}, "dtype": {"type": "DT_INT32"}}}, {"name": "StatefulPartitionedCall/Postprocessor/BatchMultiClassNonMaxSuppression/MultiClassNonMaxSuppression/range_4/delta", "op": "Const", "attr": {"dtype": {"type": "DT_INT32"}, "value": {"tensor": {"dtype": "DT_INT32", "tensorShape": {}}}}}, {"name": "StatefulPartitionedCall/Postprocessor/BatchMultiClassNonMaxSuppression/MultiClassNonMaxSuppression/Gather_4/GatherV2_1/axis", "op": "Const", "attr": {"value": {"tensor": {"dtype": "DT_INT32", "tensorShape": {}}}, "dtype": {"type": "DT_INT32"}}}, {"name": "StatefulPartitionedCall/Postprocessor/BatchMultiClassNonMaxSuppression/PadOrClipBoxList/strided_slice_4/stack", "op": "Const", "attr": {"value": {"tensor": {"dtype": "DT_INT32", "tensorShape": {"dim": [{"size": "1"}]}}}, "dtype": {"type": "DT_INT32"}}}, {"name": "StatefulPartitionedCall/Postprocessor/BatchMultiClassNonMaxSuppression/PadOrClipBoxList/strided_slice_4/stack_1", "op": "Const", "attr": {"dtype": {"type": "DT_INT32"}, "value": {"tensor": {"dtype": "DT_INT32", "tensorShape": {"dim": [{"size": "1"}]}}}}}, {"name": "StatefulPartitionedCall/Postprocessor/BatchMultiClassNonMaxSuppression/PadOrClipBoxList/strided_slice_4/stack_2", "op": "Const", "attr": {"dtype": {"type": "DT_INT32"}, "value": {"tensor": {"dtype": "DT_INT32", "tensorShape": {"dim": [{"size": "1"}]}}}}}, {"name": "StatefulPartitionedCall/Postprocessor/BatchMultiClassNonMaxSuppression/PadOrClipBoxList/sub_4/y", "op": "Const", "attr": {"value": {"tensor": {"dtype": "DT_INT32", "tensorShape": {}}}, "dtype": {"type": "DT_INT32"}}}, {"name": "StatefulPartitionedCall/Postprocessor/BatchMultiClassNonMaxSuppression/PadOrClipBoxList/Greater_2/y", "op": "Const", "attr": {"value": {"tensor": {"dtype": "DT_INT32", "tensorShape": {}}}, "dtype": {"type": "DT_INT32"}}}, {"name": "StatefulPartitionedCall/Postprocessor/BatchMultiClassNonMaxSuppression/PadOrClipBoxList/Select_2/t", "op": "Const", "attr": {"dtype": {"type": "DT_INT32"}, "value": {"tensor": {"dtype": "DT_INT32", "tensorShape": {}}}}}, {"name": "StatefulPartitionedCall/Postprocessor/BatchMultiClassNonMaxSuppression/PadOrClipBoxList/Select_2/e", "op": "Const", "attr": {"dtype": {"type": "DT_INT32"}, "value": {"tensor": {"dtype": "DT_INT32", "tensorShape": {}}}}}, {"name": "StatefulPartitionedCall/Postprocessor/BatchMultiClassNonMaxSuppression/PadOrClipBoxList/strided_slice_5/stack", "op": "Const", "attr": {"dtype": {"type": "DT_INT32"}, "value": {"tensor": {"dtype": "DT_INT32", "tensorShape": {"dim": [{"size": "1"}]}}}}}, {"name": "StatefulPartitionedCall/Postprocessor/BatchMultiClassNonMaxSuppression/PadOrClipBoxList/strided_slice_5/stack_1", "op": "Const", "attr": {"value": {"tensor": {"dtype": "DT_INT32", "tensorShape": {"dim": [{"size": "1"}]}}}, "dtype": {"type": "DT_INT32"}}}, {"name": "StatefulPartitionedCall/Postprocessor/BatchMultiClassNonMaxSuppression/PadOrClipBoxList/strided_slice_5/stack_2", "op": "Const", "attr": {"value": {"tensor": {"dtype": "DT_INT32", "tensorShape": {"dim": [{"size": "1"}]}}}, "dtype": {"type": "DT_INT32"}}}, {"name": "StatefulPartitionedCall/Postprocessor/BatchMultiClassNonMaxSuppression/MultiClassNonMaxSuppression/GreaterEqual/y", "op": "Const", "attr": {"dtype": {"type": "DT_FLOAT"}, "value": {"tensor": {"dtype": "DT_FLOAT", "tensorShape": {}}}}}, {"name": "StatefulPartitionedCall/Postprocessor/BatchMultiClassNonMaxSuppression/MultiClassNonMaxSuppression/Const_1", "op": "Const", "attr": {"value": {"tensor": {"dtype": "DT_INT32", "tensorShape": {"dim": [{"size": "1"}]}}}, "dtype": {"type": "DT_INT32"}}}, {"name": "StatefulPartitionedCall/Postprocessor/BatchMultiClassNonMaxSuppression/MultiClassNonMaxSuppression/Minimum_3/x", "op": "Const", "attr": {"dtype": {"type": "DT_INT32"}, "value": {"tensor": {"dtype": "DT_INT32", "tensorShape": {}}}}}, {"name": "StatefulPartitionedCall/Postprocessor/BatchMultiClassNonMaxSuppression/MultiClassNonMaxSuppression/ChangeCoordinateFrame/strided_slice/stack", "op": "Const", "attr": {"value": {"tensor": {"dtype": "DT_INT32", "tensorShape": {"dim": [{"size": "1"}]}}}, "dtype": {"type": "DT_INT32"}}}, {"name": "StatefulPartitionedCall/Postprocessor/BatchMultiClassNonMaxSuppression/MultiClassNonMaxSuppression/ChangeCoordinateFrame/strided_slice/stack_1", "op": "Const", "attr": {"value": {"tensor": {"dtype": "DT_INT32", "tensorShape": {"dim": [{"size": "1"}]}}}, "dtype": {"type": "DT_INT32"}}}, {"name": "StatefulPartitionedCall/Postprocessor/BatchMultiClassNonMaxSuppression/MultiClassNonMaxSuppression/ChangeCoordinateFrame/strided_slice/stack_2", "op": "Const", "attr": {"value": {"tensor": {"dtype": "DT_INT32", "tensorShape": {"dim": [{"size": "1"}]}}}, "dtype": {"type": "DT_INT32"}}}, {"name": "StatefulPartitionedCall/Postprocessor/BatchMultiClassNonMaxSuppression/MultiClassNonMaxSuppression/ChangeCoordinateFrame/strided_slice_1/stack", "op": "Const", "attr": {"dtype": {"type": "DT_INT32"}, "value": {"tensor": {"dtype": "DT_INT32", "tensorShape": {"dim": [{"size": "1"}]}}}}}, {"name": "StatefulPartitionedCall/Postprocessor/BatchMultiClassNonMaxSuppression/MultiClassNonMaxSuppression/ChangeCoordinateFrame/strided_slice_1/stack_1", "op": "Const", "attr": {"value": {"tensor": {"dtype": "DT_INT32", "tensorShape": {"dim": [{"size": "1"}]}}}, "dtype": {"type": "DT_INT32"}}}, {"name": "StatefulPartitionedCall/Postprocessor/BatchMultiClassNonMaxSuppression/MultiClassNonMaxSuppression/ChangeCoordinateFrame/strided_slice_1/stack_2", "op": "Const", "attr": {"value": {"tensor": {"dtype": "DT_INT32", "tensorShape": {"dim": [{"size": "1"}]}}}, "dtype": {"type": "DT_INT32"}}}, {"name": "StatefulPartitionedCall/Postprocessor/BatchMultiClassNonMaxSuppression/MultiClassNonMaxSuppression/ChangeCoordinateFrame/strided_slice_2/stack", "op": "Const", "attr": {"dtype": {"type": "DT_INT32"}, "value": {"tensor": {"dtype": "DT_INT32", "tensorShape": {"dim": [{"size": "1"}]}}}}}, {"name": "StatefulPartitionedCall/Postprocessor/BatchMultiClassNonMaxSuppression/MultiClassNonMaxSuppression/ChangeCoordinateFrame/strided_slice_2/stack_1", "op": "Const", "attr": {"value": {"tensor": {"dtype": "DT_INT32", "tensorShape": {"dim": [{"size": "1"}]}}}, "dtype": {"type": "DT_INT32"}}}, {"name": "StatefulPartitionedCall/Postprocessor/BatchMultiClassNonMaxSuppression/MultiClassNonMaxSuppression/ChangeCoordinateFrame/strided_slice_2/stack_2", "op": "Const", "attr": {"dtype": {"type": "DT_INT32"}, "value": {"tensor": {"dtype": "DT_INT32", "tensorShape": {"dim": [{"size": "1"}]}}}}}, {"name": "StatefulPartitionedCall/Postprocessor/BatchMultiClassNonMaxSuppression/MultiClassNonMaxSuppression/ChangeCoordinateFrame/strided_slice_3/stack", "op": "Const", "attr": {"dtype": {"type": "DT_INT32"}, "value": {"tensor": {"dtype": "DT_INT32", "tensorShape": {"dim": [{"size": "1"}]}}}}}, {"name": "StatefulPartitionedCall/Postprocessor/BatchMultiClassNonMaxSuppression/MultiClassNonMaxSuppression/ChangeCoordinateFrame/strided_slice_3/stack_1", "op": "Const", "attr": {"value": {"tensor": {"dtype": "DT_INT32", "tensorShape": {"dim": [{"size": "1"}]}}}, "dtype": {"type": "DT_INT32"}}}, {"name": "StatefulPartitionedCall/Postprocessor/BatchMultiClassNonMaxSuppression/MultiClassNonMaxSuppression/ChangeCoordinateFrame/strided_slice_3/stack_2", "op": "Const", "attr": {"dtype": {"type": "DT_INT32"}, "value": {"tensor": {"dtype": "DT_INT32", "tensorShape": {"dim": [{"size": "1"}]}}}}}, {"name": "StatefulPartitionedCall/Postprocessor/BatchMultiClassNonMaxSuppression/MultiClassNonMaxSuppression/ChangeCoordinateFrame/Scale/split/split_dim", "op": "Const", "attr": {"dtype": {"type": "DT_INT32"}, "value": {"tensor": {"dtype": "DT_INT32", "tensorShape": {}}}}}, {"name": "StatefulPartitionedCall/Postprocessor/BatchMultiClassNonMaxSuppression/MultiClassNonMaxSuppression/SortByField_1/Gather/GatherV2_6/axis", "op": "Const", "attr": {"dtype": {"type": "DT_INT32"}, "value": {"tensor": {"dtype": "DT_INT32", "tensorShape": {}}}}}, {"name": "StatefulPartitionedCall/Postprocessor/BatchMultiClassNonMaxSuppression/MultiClassNonMaxSuppression/ChangeCoordinateFrame/strided_slice_4/stack", "op": "Const", "attr": {"value": {"tensor": {"dtype": "DT_INT32", "tensorShape": {"dim": [{"size": "1"}]}}}, "dtype": {"type": "DT_INT32"}}}, {"name": "StatefulPartitionedCall/Postprocessor/BatchMultiClassNonMaxSuppression/MultiClassNonMaxSuppression/ChangeCoordinateFrame/strided_slice_4/stack_1", "op": "Const", "attr": {"dtype": {"type": "DT_INT32"}, "value": {"tensor": {"dtype": "DT_INT32", "tensorShape": {"dim": [{"size": "1"}]}}}}}, {"name": "StatefulPartitionedCall/Postprocessor/BatchMultiClassNonMaxSuppression/MultiClassNonMaxSuppression/ChangeCoordinateFrame/strided_slice_4/stack_2", "op": "Const", "attr": {"dtype": {"type": "DT_INT32"}, "value": {"tensor": {"dtype": "DT_INT32", "tensorShape": {"dim": [{"size": "1"}]}}}}}, {"name": "StatefulPartitionedCall/Postprocessor/BatchMultiClassNonMaxSuppression/MultiClassNonMaxSuppression/ChangeCoordinateFrame/strided_slice_5/stack", "op": "Const", "attr": {"dtype": {"type": "DT_INT32"}, "value": {"tensor": {"dtype": "DT_INT32", "tensorShape": {"dim": [{"size": "1"}]}}}}}, {"name": "StatefulPartitionedCall/Postprocessor/BatchMultiClassNonMaxSuppression/MultiClassNonMaxSuppression/ChangeCoordinateFrame/strided_slice_5/stack_1", "op": "Const", "attr": {"dtype": {"type": "DT_INT32"}, "value": {"tensor": {"dtype": "DT_INT32", "tensorShape": {"dim": [{"size": "1"}]}}}}}, {"name": "StatefulPartitionedCall/Postprocessor/BatchMultiClassNonMaxSuppression/MultiClassNonMaxSuppression/ChangeCoordinateFrame/strided_slice_5/stack_2", "op": "Const", "attr": {"dtype": {"type": "DT_INT32"}, "value": {"tensor": {"dtype": "DT_INT32", "tensorShape": {"dim": [{"size": "1"}]}}}}}, {"name": "StatefulPartitionedCall/Postprocessor/BatchMultiClassNonMaxSuppression/MultiClassNonMaxSuppression/ChangeCoordinateFrame/strided_slice_6/stack", "op": "Const", "attr": {"dtype": {"type": "DT_INT32"}, "value": {"tensor": {"dtype": "DT_INT32", "tensorShape": {"dim": [{"size": "1"}]}}}}}, {"name": "StatefulPartitionedCall/Postprocessor/BatchMultiClassNonMaxSuppression/MultiClassNonMaxSuppression/ChangeCoordinateFrame/strided_slice_6/stack_1", "op": "Const", "attr": {"dtype": {"type": "DT_INT32"}, "value": {"tensor": {"dtype": "DT_INT32", "tensorShape": {"dim": [{"size": "1"}]}}}}}, {"name": "StatefulPartitionedCall/Postprocessor/BatchMultiClassNonMaxSuppression/MultiClassNonMaxSuppression/ChangeCoordinateFrame/strided_slice_6/stack_2", "op": "Const", "attr": {"value": {"tensor": {"dtype": "DT_INT32", "tensorShape": {"dim": [{"size": "1"}]}}}, "dtype": {"type": "DT_INT32"}}}, {"name": "StatefulPartitionedCall/Postprocessor/BatchMultiClassNonMaxSuppression/MultiClassNonMaxSuppression/ChangeCoordinateFrame/strided_slice_7/stack", "op": "Const", "attr": {"dtype": {"type": "DT_INT32"}, "value": {"tensor": {"dtype": "DT_INT32", "tensorShape": {"dim": [{"size": "1"}]}}}}}, {"name": "StatefulPartitionedCall/Postprocessor/BatchMultiClassNonMaxSuppression/MultiClassNonMaxSuppression/ChangeCoordinateFrame/strided_slice_7/stack_1", "op": "Const", "attr": {"dtype": {"type": "DT_INT32"}, "value": {"tensor": {"dtype": "DT_INT32", "tensorShape": {"dim": [{"size": "1"}]}}}}}, {"name": "StatefulPartitionedCall/Postprocessor/BatchMultiClassNonMaxSuppression/MultiClassNonMaxSuppression/ChangeCoordinateFrame/strided_slice_7/stack_2", "op": "Const", "attr": {"value": {"tensor": {"dtype": "DT_INT32", "tensorShape": {"dim": [{"size": "1"}]}}}, "dtype": {"type": "DT_INT32"}}}, {"name": "StatefulPartitionedCall/Postprocessor/BatchMultiClassNonMaxSuppression/MultiClassNonMaxSuppression/ChangeCoordinateFrame/Scale/concat/axis", "op": "Const", "attr": {"dtype": {"type": "DT_INT32"}, "value": {"tensor": {"dtype": "DT_INT32", "tensorShape": {}}}}}, {"name": "StatefulPartitionedCall/Postprocessor/BatchMultiClassNonMaxSuppression/MultiClassNonMaxSuppression/strided_slice_8/stack", "op": "Const", "attr": {"dtype": {"type": "DT_INT32"}, "value": {"tensor": {"dtype": "DT_INT32", "tensorShape": {"dim": [{"size": "1"}]}}}}}, {"name": "StatefulPartitionedCall/Postprocessor/BatchMultiClassNonMaxSuppression/MultiClassNonMaxSuppression/strided_slice_8/stack_1", "op": "Const", "attr": {"value": {"tensor": {"dtype": "DT_INT32", "tensorShape": {"dim": [{"size": "1"}]}}}, "dtype": {"type": "DT_INT32"}}}, {"name": "StatefulPartitionedCall/Postprocessor/BatchMultiClassNonMaxSuppression/MultiClassNonMaxSuppression/strided_slice_8/stack_2", "op": "Const", "attr": {"dtype": {"type": "DT_INT32"}, "value": {"tensor": {"dtype": "DT_INT32", "tensorShape": {"dim": [{"size": "1"}]}}}}}, {"name": "StatefulPartitionedCall/Postprocessor/BatchMultiClassNonMaxSuppression/MultiClassNonMaxSuppression/SortByField_1/strided_slice/stack", "op": "Const", "attr": {"dtype": {"type": "DT_INT32"}, "value": {"tensor": {"dtype": "DT_INT32", "tensorShape": {"dim": [{"size": "1"}]}}}}}, {"name": "StatefulPartitionedCall/Postprocessor/BatchMultiClassNonMaxSuppression/MultiClassNonMaxSuppression/SortByField_1/strided_slice/stack_1", "op": "Const", "attr": {"value": {"tensor": {"dtype": "DT_INT32", "tensorShape": {"dim": [{"size": "1"}]}}}, "dtype": {"type": "DT_INT32"}}}, {"name": "StatefulPartitionedCall/Postprocessor/BatchMultiClassNonMaxSuppression/MultiClassNonMaxSuppression/SortByField_1/strided_slice/stack_2", "op": "Const", "attr": {"value": {"tensor": {"dtype": "DT_INT32", "tensorShape": {"dim": [{"size": "1"}]}}}, "dtype": {"type": "DT_INT32"}}}, {"name": "StatefulPartitionedCall/Postprocessor/BatchMultiClassNonMaxSuppression/MultiClassNonMaxSuppression/Area/split/split_dim", "op": "Const", "attr": {"dtype": {"type": "DT_INT32"}, "value": {"tensor": {"dtype": "DT_INT32", "tensorShape": {}}}}}, {"name": "StatefulPartitionedCall/Postprocessor/BatchMultiClassNonMaxSuppression/MultiClassNonMaxSuppression/SortByField/Gather/GatherV2_1/axis", "op": "Const", "attr": {"value": {"tensor": {"dtype": "DT_INT32", "tensorShape": {}}}, "dtype": {"type": "DT_INT32"}}}, {"name": "StatefulPartitionedCall/Postprocessor/BatchMultiClassNonMaxSuppression/MultiClassNonMaxSuppression/ClipToWindow/Gather/GatherV2_1/axis", "op": "Const", "attr": {"value": {"tensor": {"dtype": "DT_INT32", "tensorShape": {}}}, "dtype": {"type": "DT_INT32"}}}, {"name": "StatefulPartitionedCall/Postprocessor/BatchMultiClassNonMaxSuppression/MultiClassNonMaxSuppression/mul_3/x", "op": "Const", "attr": {"value": {"tensor": {"dtype": "DT_FLOAT", "tensorShape": {}}}, "dtype": {"type": "DT_FLOAT"}}}, {"name": "StatefulPartitionedCall/Postprocessor/BatchMultiClassNonMaxSuppression/MultiClassNonMaxSuppression/ClipToWindow/Area/split/split_dim", "op": "Const", "attr": {"dtype": {"type": "DT_INT32"}, "value": {"tensor": {"dtype": "DT_INT32", "tensorShape": {}}}}}, {"name": "StatefulPartitionedCall/Postprocessor/BatchMultiClassNonMaxSuppression/MultiClassNonMaxSuppression/ClipToWindow/strided_slice_2/stack", "op": "Const", "attr": {"value": {"tensor": {"dtype": "DT_INT32", "tensorShape": {"dim": [{"size": "1"}]}}}, "dtype": {"type": "DT_INT32"}}}, {"name": "StatefulPartitionedCall/Postprocessor/BatchMultiClassNonMaxSuppression/MultiClassNonMaxSuppression/ClipToWindow/strided_slice_2/stack_1", "op": "Const", "attr": {"value": {"tensor": {"dtype": "DT_INT32", "tensorShape": {"dim": [{"size": "1"}]}}}, "dtype": {"type": "DT_INT32"}}}, {"name": "StatefulPartitionedCall/Postprocessor/BatchMultiClassNonMaxSuppression/MultiClassNonMaxSuppression/ClipToWindow/strided_slice_2/stack_2", "op": "Const", "attr": {"dtype": {"type": "DT_INT32"}, "value": {"tensor": {"dtype": "DT_INT32", "tensorShape": {"dim": [{"size": "1"}]}}}}}, {"name": "StatefulPartitionedCall/Postprocessor/BatchMultiClassNonMaxSuppression/MultiClassNonMaxSuppression/ClipToWindow/strided_slice/stack", "op": "Const", "attr": {"value": {"tensor": {"dtype": "DT_INT32", "tensorShape": {"dim": [{"size": "1"}]}}}, "dtype": {"type": "DT_INT32"}}}, {"name": "StatefulPartitionedCall/Postprocessor/BatchMultiClassNonMaxSuppression/MultiClassNonMaxSuppression/ClipToWindow/strided_slice/stack_1", "op": "Const", "attr": {"dtype": {"type": "DT_INT32"}, "value": {"tensor": {"dtype": "DT_INT32", "tensorShape": {"dim": [{"size": "1"}]}}}}}, {"name": "StatefulPartitionedCall/Postprocessor/BatchMultiClassNonMaxSuppression/MultiClassNonMaxSuppression/ClipToWindow/strided_slice/stack_2", "op": "Const", "attr": {"value": {"tensor": {"dtype": "DT_INT32", "tensorShape": {"dim": [{"size": "1"}]}}}, "dtype": {"type": "DT_INT32"}}}, {"name": "StatefulPartitionedCall/Postprocessor/BatchMultiClassNonMaxSuppression/MultiClassNonMaxSuppression/ClipToWindow/split/split_dim", "op": "Const", "attr": {"dtype": {"type": "DT_INT32"}, "value": {"tensor": {"dtype": "DT_INT32", "tensorShape": {}}}}}, {"name": "StatefulPartitionedCall/Postprocessor/BatchMultiClassNonMaxSuppression/MultiClassNonMaxSuppression/range", "op": "Const", "attr": {"value": {"tensor": {"dtype": "DT_INT32", "tensorShape": {"dim": [{"size": "100"}]}}}, "dtype": {"type": "DT_INT32"}}}, {"name": "StatefulPartitionedCall/Postprocessor/BatchMultiClassNonMaxSuppression/MultiClassNonMaxSuppression/zeros_1/Reshape/shape", "op": "Const", "attr": {"dtype": {"type": "DT_INT32"}, "value": {"tensor": {"dtype": "DT_INT32", "tensorShape": {"dim": [{"size": "1"}]}}}}}, {"name": "StatefulPartitionedCall/Postprocessor/BatchMultiClassNonMaxSuppression/MultiClassNonMaxSuppression/zeros_1/Const", "op": "Const", "attr": {"value": {"tensor": {"dtype": "DT_FLOAT", "tensorShape": {}}}, "dtype": {"type": "DT_FLOAT"}}}, {"name": "StatefulPartitionedCall/Postprocessor/BatchMultiClassNonMaxSuppression/MultiClassNonMaxSuppression/concat_1/axis", "op": "Const", "attr": {"dtype": {"type": "DT_INT32"}, "value": {"tensor": {"dtype": "DT_INT32", "tensorShape": {}}}}}, {"name": "StatefulPartitionedCall/Postprocessor/BatchMultiClassNonMaxSuppression/MultiClassNonMaxSuppression/mul", "op": "Const", "attr": {"value": {"tensor": {"dtype": "DT_FLOAT", "tensorShape": {"dim": [{"size": "100"}]}}}, "dtype": {"type": "DT_FLOAT"}}}, {"name": "StatefulPartitionedCall/Postprocessor/BatchMultiClassNonMaxSuppression/MultiClassNonMaxSuppression/range_1", "op": "Const", "attr": {"value": {"tensor": {"dtype": "DT_INT32", "tensorShape": {"dim": [{"size": "100"}]}}}, "dtype": {"type": "DT_INT32"}}}, {"name": "StatefulPartitionedCall/Postprocessor/BatchMultiClassNonMaxSuppression/MultiClassNonMaxSuppression/zeros_3/Reshape/shape", "op": "Const", "attr": {"dtype": {"type": "DT_INT32"}, "value": {"tensor": {"dtype": "DT_INT32", "tensorShape": {"dim": [{"size": "1"}]}}}}}, {"name": "StatefulPartitionedCall/Postprocessor/BatchMultiClassNonMaxSuppression/MultiClassNonMaxSuppression/zeros_3/Const", "op": "Const", "attr": {"value": {"tensor": {"dtype": "DT_FLOAT", "tensorShape": {}}}, "dtype": {"type": "DT_FLOAT"}}}, {"name": "StatefulPartitionedCall/Postprocessor/BatchMultiClassNonMaxSuppression/MultiClassNonMaxSuppression/concat_3/axis", "op": "Const", "attr": {"dtype": {"type": "DT_INT32"}, "value": {"tensor": {"dtype": "DT_INT32", "tensorShape": {}}}}}, {"name": "StatefulPartitionedCall/Postprocessor/BatchMultiClassNonMaxSuppression/MultiClassNonMaxSuppression/mul_1", "op": "Const", "attr": {"dtype": {"type": "DT_FLOAT"}, "value": {"tensor": {"dtype": "DT_FLOAT", "tensorShape": {"dim": [{"size": "100"}]}}}}}, {"name": "StatefulPartitionedCall/Postprocessor/BatchMultiClassNonMaxSuppression/MultiClassNonMaxSuppression/range_2", "op": "Const", "attr": {"dtype": {"type": "DT_INT32"}, "value": {"tensor": {"dtype": "DT_INT32", "tensorShape": {"dim": [{"size": "100"}]}}}}}, {"name": "StatefulPartitionedCall/Postprocessor/BatchMultiClassNonMaxSuppression/MultiClassNonMaxSuppression/zeros_5/Reshape/shape", "op": "Const", "attr": {"value": {"tensor": {"dtype": "DT_INT32", "tensorShape": {"dim": [{"size": "1"}]}}}, "dtype": {"type": "DT_INT32"}}}, {"name": "StatefulPartitionedCall/Postprocessor/BatchMultiClassNonMaxSuppression/MultiClassNonMaxSuppression/zeros_5/Const", "op": "Const", "attr": {"value": {"tensor": {"dtype": "DT_FLOAT", "tensorShape": {}}}, "dtype": {"type": "DT_FLOAT"}}}, {"name": "StatefulPartitionedCall/Postprocessor/BatchMultiClassNonMaxSuppression/MultiClassNonMaxSuppression/concat_5/axis", "op": "Const", "attr": {"value": {"tensor": {"dtype": "DT_INT32", "tensorShape": {}}}, "dtype": {"type": "DT_INT32"}}}, {"name": "StatefulPartitionedCall/Postprocessor/BatchMultiClassNonMaxSuppression/MultiClassNonMaxSuppression/mul_2", "op": "Const", "attr": {"dtype": {"type": "DT_FLOAT"}, "value": {"tensor": {"dtype": "DT_FLOAT", "tensorShape": {"dim": [{"size": "100"}]}}}}}, {"name": "StatefulPartitionedCall/Postprocessor/BatchMultiClassNonMaxSuppression/MultiClassNonMaxSuppression/Concatenate/concat_1/axis", "op": "Const", "attr": {"dtype": {"type": "DT_INT32"}, "value": {"tensor": {"dtype": "DT_INT32", "tensorShape": {}}}}}, {"name": "StatefulPartitionedCall/Postprocessor/BatchMultiClassNonMaxSuppression/MultiClassNonMaxSuppression/Slice/begin", "op": "Const", "attr": {"dtype": {"type": "DT_INT32"}, "value": {"tensor": {"dtype": "DT_INT32", "tensorShape": {"dim": [{"size": "2"}]}}}}}, {"name": "StatefulPartitionedCall/Postprocessor/BatchMultiClassNonMaxSuppression/MultiClassNonMaxSuppression/stack", "op": "Const", "attr": {"value": {"tensor": {"dtype": "DT_INT32", "tensorShape": {"dim": [{"size": "2"}]}}}, "dtype": {"type": "DT_INT32"}}}, {"name": "StatefulPartitionedCall/Postprocessor/BatchMultiClassNonMaxSuppression/MultiClassNonMaxSuppression/Reshape/shape", "op": "Const", "attr": {"dtype": {"type": "DT_INT32"}, "value": {"tensor": {"dtype": "DT_INT32", "tensorShape": {"dim": [{"size": "1"}]}}}}}, {"name": "StatefulPartitionedCall/Postprocessor/BatchMultiClassNonMaxSuppression/MultiClassNonMaxSuppression/Minimum", "op": "Const", "attr": {"dtype": {"type": "DT_INT32"}, "value": {"tensor": {"dtype": "DT_INT32", "tensorShape": {}}}}}, {"name": "StatefulPartitionedCall/Postprocessor/BatchMultiClassNonMaxSuppression/MultiClassNonMaxSuppression/non_max_suppression_with_scores/iou_threshold", "op": "Const", "attr": {"value": {"tensor": {"dtype": "DT_FLOAT", "tensorShape": {}}}, "dtype": {"type": "DT_FLOAT"}}}, {"name": "StatefulPartitionedCall/Postprocessor/BatchMultiClassNonMaxSuppression/MultiClassNonMaxSuppression/non_max_suppression_with_scores/score_threshold", "op": "Const", "attr": {"dtype": {"type": "DT_FLOAT"}, "value": {"tensor": {"dtype": "DT_FLOAT", "tensorShape": {}}}}}, {"name": "StatefulPartitionedCall/Postprocessor/BatchMultiClassNonMaxSuppression/MultiClassNonMaxSuppression/non_max_suppression_with_scores/soft_nms_sigma", "op": "Const", "attr": {"dtype": {"type": "DT_FLOAT"}, "value": {"tensor": {"dtype": "DT_FLOAT", "tensorShape": {}}}}}, {"name": "StatefulPartitionedCall/Postprocessor/BatchMultiClassNonMaxSuppression/MultiClassNonMaxSuppression/strided_slice_2/stack", "op": "Const", "attr": {"value": {"tensor": {"dtype": "DT_INT32", "tensorShape": {"dim": [{"size": "1"}]}}}, "dtype": {"type": "DT_INT32"}}}, {"name": "StatefulPartitionedCall/Postprocessor/BatchMultiClassNonMaxSuppression/MultiClassNonMaxSuppression/strided_slice_2/stack_1", "op": "Const", "attr": {"dtype": {"type": "DT_INT32"}, "value": {"tensor": {"dtype": "DT_INT32", "tensorShape": {"dim": [{"size": "1"}]}}}}}, {"name": "StatefulPartitionedCall/Postprocessor/BatchMultiClassNonMaxSuppression/MultiClassNonMaxSuppression/strided_slice_2/stack_2", "op": "Const", "attr": {"dtype": {"type": "DT_INT32"}, "value": {"tensor": {"dtype": "DT_INT32", "tensorShape": {"dim": [{"size": "1"}]}}}}}, {"name": "StatefulPartitionedCall/Postprocessor/BatchMultiClassNonMaxSuppression/MultiClassNonMaxSuppression/zeros/Reshape/shape", "op": "Const", "attr": {"value": {"tensor": {"dtype": "DT_INT32", "tensorShape": {"dim": [{"size": "1"}]}}}, "dtype": {"type": "DT_INT32"}}}, {"name": "StatefulPartitionedCall/Postprocessor/BatchMultiClassNonMaxSuppression/MultiClassNonMaxSuppression/zeros/Const", "op": "Const", "attr": {"dtype": {"type": "DT_INT32"}, "value": {"tensor": {"dtype": "DT_INT32", "tensorShape": {}}}}}, {"name": "StatefulPartitionedCall/Postprocessor/BatchMultiClassNonMaxSuppression/MultiClassNonMaxSuppression/concat/axis", "op": "Const", "attr": {"dtype": {"type": "DT_INT32"}, "value": {"tensor": {"dtype": "DT_INT32", "tensorShape": {}}}}}, {"name": "StatefulPartitionedCall/Postprocessor/BatchMultiClassNonMaxSuppression/MultiClassNonMaxSuppression/Gather/GatherV2_5/axis", "op": "Const", "attr": {"dtype": {"type": "DT_INT32"}, "value": {"tensor": {"dtype": "DT_INT32", "tensorShape": {}}}}}, {"name": "StatefulPartitionedCall/Postprocessor/BatchMultiClassNonMaxSuppression/MultiClassNonMaxSuppression/Slice_1/begin", "op": "Const", "attr": {"value": {"tensor": {"dtype": "DT_INT32", "tensorShape": {"dim": [{"size": "2"}]}}}, "dtype": {"type": "DT_INT32"}}}, {"name": "StatefulPartitionedCall/Postprocessor/BatchMultiClassNonMaxSuppression/MultiClassNonMaxSuppression/stack_1", "op": "Const", "attr": {"dtype": {"type": "DT_INT32"}, "value": {"tensor": {"dtype": "DT_INT32", "tensorShape": {"dim": [{"size": "2"}]}}}}}, {"name": "StatefulPartitionedCall/Postprocessor/BatchMultiClassNonMaxSuppression/MultiClassNonMaxSuppression/Reshape_1/shape", "op": "Const", "attr": {"dtype": {"type": "DT_INT32"}, "value": {"tensor": {"dtype": "DT_INT32", "tensorShape": {"dim": [{"size": "1"}]}}}}}, {"name": "StatefulPartitionedCall/Postprocessor/BatchMultiClassNonMaxSuppression/MultiClassNonMaxSuppression/Minimum_1", "op": "Const", "attr": {"value": {"tensor": {"dtype": "DT_INT32", "tensorShape": {}}}, "dtype": {"type": "DT_INT32"}}}, {"name": "StatefulPartitionedCall/Postprocessor/BatchMultiClassNonMaxSuppression/MultiClassNonMaxSuppression/non_max_suppression_with_scores_1/iou_threshold", "op": "Const", "attr": {"dtype": {"type": "DT_FLOAT"}, "value": {"tensor": {"dtype": "DT_FLOAT", "tensorShape": {}}}}}, {"name": "StatefulPartitionedCall/Postprocessor/BatchMultiClassNonMaxSuppression/MultiClassNonMaxSuppression/non_max_suppression_with_scores_1/score_threshold", "op": "Const", "attr": {"dtype": {"type": "DT_FLOAT"}, "value": {"tensor": {"dtype": "DT_FLOAT", "tensorShape": {}}}}}, {"name": "StatefulPartitionedCall/Postprocessor/BatchMultiClassNonMaxSuppression/MultiClassNonMaxSuppression/non_max_suppression_with_scores_1/soft_nms_sigma", "op": "Const", "attr": {"dtype": {"type": "DT_FLOAT"}, "value": {"tensor": {"dtype": "DT_FLOAT", "tensorShape": {}}}}}, {"name": "StatefulPartitionedCall/Postprocessor/BatchMultiClassNonMaxSuppression/MultiClassNonMaxSuppression/strided_slice_4/stack", "op": "Const", "attr": {"dtype": {"type": "DT_INT32"}, "value": {"tensor": {"dtype": "DT_INT32", "tensorShape": {"dim": [{"size": "1"}]}}}}}, {"name": "StatefulPartitionedCall/Postprocessor/BatchMultiClassNonMaxSuppression/MultiClassNonMaxSuppression/strided_slice_4/stack_1", "op": "Const", "attr": {"dtype": {"type": "DT_INT32"}, "value": {"tensor": {"dtype": "DT_INT32", "tensorShape": {"dim": [{"size": "1"}]}}}}}, {"name": "StatefulPartitionedCall/Postprocessor/BatchMultiClassNonMaxSuppression/MultiClassNonMaxSuppression/strided_slice_4/stack_2", "op": "Const", "attr": {"dtype": {"type": "DT_INT32"}, "value": {"tensor": {"dtype": "DT_INT32", "tensorShape": {"dim": [{"size": "1"}]}}}}}, {"name": "StatefulPartitionedCall/Postprocessor/BatchMultiClassNonMaxSuppression/MultiClassNonMaxSuppression/zeros_2/Reshape/shape", "op": "Const", "attr": {"value": {"tensor": {"dtype": "DT_INT32", "tensorShape": {"dim": [{"size": "1"}]}}}, "dtype": {"type": "DT_INT32"}}}, {"name": "StatefulPartitionedCall/Postprocessor/BatchMultiClassNonMaxSuppression/MultiClassNonMaxSuppression/zeros_2/Const", "op": "Const", "attr": {"dtype": {"type": "DT_INT32"}, "value": {"tensor": {"dtype": "DT_INT32", "tensorShape": {}}}}}, {"name": "StatefulPartitionedCall/Postprocessor/BatchMultiClassNonMaxSuppression/MultiClassNonMaxSuppression/concat_2/axis", "op": "Const", "attr": {"value": {"tensor": {"dtype": "DT_INT32", "tensorShape": {}}}, "dtype": {"type": "DT_INT32"}}}, {"name": "StatefulPartitionedCall/Postprocessor/BatchMultiClassNonMaxSuppression/MultiClassNonMaxSuppression/Gather_1/GatherV2_5/axis", "op": "Const", "attr": {"value": {"tensor": {"dtype": "DT_INT32", "tensorShape": {}}}, "dtype": {"type": "DT_INT32"}}}, {"name": "ConstantFolding/StatefulPartitionedCall/Postprocessor/Decode/truediv_4_recip", "op": "Const", "attr": {"value": {"tensor": {"dtype": "DT_FLOAT", "tensorShape": {}}}, "dtype": {"type": "DT_FLOAT"}}}, {"name": "ConstantFolding/StatefulPartitionedCall/Postprocessor/Decode/truediv_5_recip", "op": "Const", "attr": {"value": {"tensor": {"dtype": "DT_FLOAT", "tensorShape": {}}}, "dtype": {"type": "DT_FLOAT"}}}, {"name": "StatefulPartitionedCall/Postprocessor/Decode/truediv", "op": "Const", "attr": {"dtype": {"type": "DT_FLOAT"}, "value": {"tensor": {"dtype": "DT_FLOAT", "tensorShape": {"dim": [{"size": "12804"}]}}}}}, {"name": "StatefulPartitionedCall/Postprocessor/Decode/get_center_coordinates_and_sizes/add", "op": "Const", "attr": {"dtype": {"type": "DT_FLOAT"}, "value": {"tensor": {"dtype": "DT_FLOAT", "tensorShape": {"dim": [{"size": "12804"}]}}}}}, {"name": "ConstantFolding/StatefulPartitionedCall/Postprocessor/Decode/truediv_2_recip", "op": "Const", "attr": {"value": {"tensor": {"dtype": "DT_FLOAT", "tensorShape": {}}}, "dtype": {"type": "DT_FLOAT"}}}, {"name": "StatefulPartitionedCall/Postprocessor/Decode/get_center_coordinates_and_sizes/sub_1", "op": "Const", "attr": {"value": {"tensor": {"dtype": "DT_FLOAT", "tensorShape": {"dim": [{"size": "12804"}]}}}, "dtype": {"type": "DT_FLOAT"}}}, {"name": "ConstantFolding/StatefulPartitionedCall/Postprocessor/Decode/truediv_6_recip", "op": "Const", "attr": {"dtype": {"type": "DT_FLOAT"}, "value": {"tensor": {"dtype": "DT_FLOAT", "tensorShape": {}}}}}, {"name": "StatefulPartitionedCall/Postprocessor/Decode/truediv_1", "op": "Const", "attr": {"value": {"tensor": {"dtype": "DT_FLOAT", "tensorShape": {"dim": [{"size": "12804"}]}}}, "dtype": {"type": "DT_FLOAT"}}}, {"name": "StatefulPartitionedCall/Postprocessor/Decode/get_center_coordinates_and_sizes/add_1", "op": "Const", "attr": {"dtype": {"type": "DT_FLOAT"}, "value": {"tensor": {"dtype": "DT_FLOAT", "tensorShape": {"dim": [{"size": "12804"}]}}}}}, {"name": "StatefulPartitionedCall/WeightSharedConvolutionalBoxPredictor/WeightSharedConvolutionalBoxHead/BoxPredictor/separable_conv2d/ReadVariableOp", "op": "Const", "attr": {"value": {"tensor": {"dtype": "DT_FLOAT", "tensorShape": {"dim": [{"size": "3"}, {"size": "3"}, {"size": "128"}, {"size": "1"}]}}}, "dtype": {"type": "DT_FLOAT"}}}, {"name": "StatefulPartitionedCall/WeightSharedConvolutionalBoxPredictor/WeightSharedConvolutionalBoxHead/BoxPredictor/separable_conv2d/ReadVariableOp_1", "op": "Const", "attr": {"value": {"tensor": {"dtype": "DT_FLOAT", "tensorShape": {"dim": [{"size": "1"}, {"size": "1"}, {"size": "128"}, {"size": "24"}]}}}, "dtype": {"type": "DT_FLOAT"}}}, {"name": "StatefulPartitionedCall/WeightSharedConvolutionalBoxPredictor/WeightSharedConvolutionalBoxHead/BoxPredictor/BiasAdd/ReadVariableOp", "op": "Const", "attr": {"value": {"tensor": {"dtype": "DT_FLOAT", "tensorShape": {"dim": [{"size": "24"}]}}}, "dtype": {"type": "DT_FLOAT"}}}, {"name": "StatefulPartitionedCall/WeightSharedConvolutionalBoxPredictor/WeightSharedConvolutionalBoxHead/Reshape/shape", "op": "Const", "attr": {"dtype": {"type": "DT_INT32"}, "value": {"tensor": {"dtype": "DT_INT32", "tensorShape": {"dim": [{"size": "3"}]}}}}}, {"name": "StatefulPartitionedCall/WeightSharedConvolutionalBoxPredictor/WeightSharedConvolutionalBoxHead/BoxPredictor/separable_conv2d_1/ReadVariableOp", "op": "Const", "attr": {"value": {"tensor": {"dtype": "DT_FLOAT", "tensorShape": {"dim": [{"size": "3"}, {"size": "3"}, {"size": "128"}, {"size": "1"}]}}}, "dtype": {"type": "DT_FLOAT"}}}, {"name": "StatefulPartitionedCall/WeightSharedConvolutionalBoxPredictor/WeightSharedConvolutionalBoxHead/BoxPredictor/separable_conv2d_1/ReadVariableOp_1", "op": "Const", "attr": {"value": {"tensor": {"dtype": "DT_FLOAT", "tensorShape": {"dim": [{"size": "1"}, {"size": "1"}, {"size": "128"}, {"size": "24"}]}}}, "dtype": {"type": "DT_FLOAT"}}}, {"name": "StatefulPartitionedCall/WeightSharedConvolutionalBoxPredictor/WeightSharedConvolutionalBoxHead/BoxPredictor/BiasAdd_1/ReadVariableOp", "op": "Const", "attr": {"dtype": {"type": "DT_FLOAT"}, "value": {"tensor": {"dtype": "DT_FLOAT", "tensorShape": {"dim": [{"size": "24"}]}}}}}, {"name": "StatefulPartitionedCall/WeightSharedConvolutionalBoxPredictor/WeightSharedConvolutionalBoxHead/Reshape_1/shape", "op": "Const", "attr": {"dtype": {"type": "DT_INT32"}, "value": {"tensor": {"dtype": "DT_INT32", "tensorShape": {"dim": [{"size": "3"}]}}}}}, {"name": "StatefulPartitionedCall/WeightSharedConvolutionalBoxPredictor/WeightSharedConvolutionalBoxHead/BoxPredictor/separable_conv2d_2/ReadVariableOp", "op": "Const", "attr": {"value": {"tensor": {"dtype": "DT_FLOAT", "tensorShape": {"dim": [{"size": "3"}, {"size": "3"}, {"size": "128"}, {"size": "1"}]}}}, "dtype": {"type": "DT_FLOAT"}}}, {"name": "StatefulPartitionedCall/WeightSharedConvolutionalBoxPredictor/WeightSharedConvolutionalBoxHead/BoxPredictor/separable_conv2d_2/ReadVariableOp_1", "op": "Const", "attr": {"value": {"tensor": {"dtype": "DT_FLOAT", "tensorShape": {"dim": [{"size": "1"}, {"size": "1"}, {"size": "128"}, {"size": "24"}]}}}, "dtype": {"type": "DT_FLOAT"}}}, {"name": "StatefulPartitionedCall/WeightSharedConvolutionalBoxPredictor/WeightSharedConvolutionalBoxHead/BoxPredictor/BiasAdd_2/ReadVariableOp", "op": "Const", "attr": {"dtype": {"type": "DT_FLOAT"}, "value": {"tensor": {"dtype": "DT_FLOAT", "tensorShape": {"dim": [{"size": "24"}]}}}}}, {"name": "StatefulPartitionedCall/WeightSharedConvolutionalBoxPredictor/WeightSharedConvolutionalBoxHead/Reshape_2/shape", "op": "Const", "attr": {"dtype": {"type": "DT_INT32"}, "value": {"tensor": {"dtype": "DT_INT32", "tensorShape": {"dim": [{"size": "3"}]}}}}}, {"name": "StatefulPartitionedCall/WeightSharedConvolutionalBoxPredictor/WeightSharedConvolutionalBoxHead/BoxPredictor/separable_conv2d_3/ReadVariableOp", "op": "Const", "attr": {"value": {"tensor": {"dtype": "DT_FLOAT", "tensorShape": {"dim": [{"size": "3"}, {"size": "3"}, {"size": "128"}, {"size": "1"}]}}}, "dtype": {"type": "DT_FLOAT"}}}, {"name": "StatefulPartitionedCall/WeightSharedConvolutionalBoxPredictor/WeightSharedConvolutionalBoxHead/BoxPredictor/separable_conv2d_3/ReadVariableOp_1", "op": "Const", "attr": {"value": {"tensor": {"dtype": "DT_FLOAT", "tensorShape": {"dim": [{"size": "1"}, {"size": "1"}, {"size": "128"}, {"size": "24"}]}}}, "dtype": {"type": "DT_FLOAT"}}}, {"name": "StatefulPartitionedCall/WeightSharedConvolutionalBoxPredictor/WeightSharedConvolutionalBoxHead/BoxPredictor/BiasAdd_3/ReadVariableOp", "op": "Const", "attr": {"value": {"tensor": {"dtype": "DT_FLOAT", "tensorShape": {"dim": [{"size": "24"}]}}}, "dtype": {"type": "DT_FLOAT"}}}, {"name": "StatefulPartitionedCall/WeightSharedConvolutionalBoxPredictor/WeightSharedConvolutionalBoxHead/Reshape_3/shape", "op": "Const", "attr": {"dtype": {"type": "DT_INT32"}, "value": {"tensor": {"dtype": "DT_INT32", "tensorShape": {"dim": [{"size": "3"}]}}}}}, {"name": "StatefulPartitionedCall/WeightSharedConvolutionalBoxPredictor/WeightSharedConvolutionalBoxHead/BoxPredictor/separable_conv2d_4/ReadVariableOp", "op": "Const", "attr": {"value": {"tensor": {"dtype": "DT_FLOAT", "tensorShape": {"dim": [{"size": "3"}, {"size": "3"}, {"size": "128"}, {"size": "1"}]}}}, "dtype": {"type": "DT_FLOAT"}}}, {"name": "StatefulPartitionedCall/WeightSharedConvolutionalBoxPredictor/WeightSharedConvolutionalBoxHead/BoxPredictor/separable_conv2d_4/ReadVariableOp_1", "op": "Const", "attr": {"dtype": {"type": "DT_FLOAT"}, "value": {"tensor": {"dtype": "DT_FLOAT", "tensorShape": {"dim": [{"size": "1"}, {"size": "1"}, {"size": "128"}, {"size": "24"}]}}}}}, {"name": "StatefulPartitionedCall/WeightSharedConvolutionalBoxPredictor/WeightSharedConvolutionalBoxHead/BoxPredictor/BiasAdd_4/ReadVariableOp", "op": "Const", "attr": {"dtype": {"type": "DT_FLOAT"}, "value": {"tensor": {"dtype": "DT_FLOAT", "tensorShape": {"dim": [{"size": "24"}]}}}}}, {"name": "StatefulPartitionedCall/WeightSharedConvolutionalBoxPredictor/WeightSharedConvolutionalBoxHead/Reshape_4/shape", "op": "Const", "attr": {"value": {"tensor": {"dtype": "DT_INT32", "tensorShape": {"dim": [{"size": "3"}]}}}, "dtype": {"type": "DT_INT32"}}}, {"name": "StatefulPartitionedCall/concat/axis", "op": "Const", "attr": {"value": {"tensor": {"dtype": "DT_INT32", "tensorShape": {}}}, "dtype": {"type": "DT_INT32"}}}, {"name": "StatefulPartitionedCall/Postprocessor/Reshape_1/shape", "op": "Const", "attr": {"dtype": {"type": "DT_INT32"}, "value": {"tensor": {"dtype": "DT_INT32", "tensorShape": {"dim": [{"size": "2"}]}}}}}, {"name": "StatefulPartitionedCall/Postprocessor/Decode/transpose/perm", "op": "Const", "attr": {"value": {"tensor": {"dtype": "DT_INT32", "tensorShape": {"dim": [{"size": "2"}]}}}, "dtype": {"type": "DT_INT32"}}}, {"name": "ConstantFolding/StatefulPartitionedCall/Postprocessor/Decode/truediv_3_recip", "op": "Const", "attr": {"dtype": {"type": "DT_FLOAT"}, "value": {"tensor": {"dtype": "DT_FLOAT", "tensorShape": {}}}}}, {"name": "StatefulPartitionedCall/Postprocessor/Decode/get_center_coordinates_and_sizes/sub", "op": "Const", "attr": {"dtype": {"type": "DT_FLOAT"}, "value": {"tensor": {"dtype": "DT_FLOAT", "tensorShape": {"dim": [{"size": "12804"}]}}}}}, {"name": "ConstantFolding/StatefulPartitionedCall/Postprocessor/Decode/truediv_7_recip", "op": "Const", "attr": {"dtype": {"type": "DT_FLOAT"}, "value": {"tensor": {"dtype": "DT_FLOAT", "tensorShape": {}}}}}, {"name": "StatefulPartitionedCall/Postprocessor/Decode/transpose_1/perm", "op": "Const", "attr": {"dtype": {"type": "DT_INT32"}, "value": {"tensor": {"dtype": "DT_INT32", "tensorShape": {"dim": [{"size": "2"}]}}}}}, {"name": "StatefulPartitionedCall/Postprocessor/stack", "op": "Const", "attr": {"dtype": {"type": "DT_INT32"}, "value": {"tensor": {"dtype": "DT_INT32", "tensorShape": {"dim": [{"size": "3"}]}}}}}, {"name": "StatefulPartitionedCall/Postprocessor/ExpandDims_1/dim", "op": "Const", "attr": {"dtype": {"type": "DT_INT32"}, "value": {"tensor": {"dtype": "DT_INT32", "tensorShape": {}}}}}, {"name": "StatefulPartitionedCall/ssd_mobile_net_v2_fpn_keras_feature_extractor/FeatureMaps/top_down/nearest_neighbor_upsampling/nearest_neighbor_upsampling_1/Reshape/shape", "op": "Const", "attr": {"value": {"tensor": {"dtype": "DT_INT32", "tensorShape": {"dim": [{"size": "4"}]}}}, "dtype": {"type": "DT_INT32"}}}, {"name": "StatefulPartitionedCall/ssd_mobile_net_v2_fpn_keras_feature_extractor/FeatureMaps/top_down/nearest_neighbor_upsampling/nearest_neighbor_upsampling_1/Reshape_1/shape", "op": "Const", "attr": {"value": {"tensor": {"dtype": "DT_INT32", "tensorShape": {"dim": [{"size": "4"}]}}}, "dtype": {"type": "DT_INT32"}}}, {"name": "StatefulPartitionedCall/ssd_mobile_net_v2_fpn_keras_feature_extractor/FeatureMaps/top_down/projection_1/Conv2D/ReadVariableOp", "op": "Const", "attr": {"dtype": {"type": "DT_FLOAT"}, "value": {"tensor": {"dtype": "DT_FLOAT", "tensorShape": {"dim": [{"size": "1"}, {"size": "1"}, {"size": "32"}, {"size": "128"}]}}}}}, {"name": "StatefulPartitionedCall/ssd_mobile_net_v2_fpn_keras_feature_extractor/FeatureMaps/top_down/projection_1/BiasAdd/ReadVariableOp", "op": "Const", "attr": {"value": {"tensor": {"dtype": "DT_FLOAT", "tensorShape": {"dim": [{"size": "128"}]}}}, "dtype": {"type": "DT_FLOAT"}}}, {"name": "StatefulPartitionedCall/ssd_mobile_net_v2_fpn_keras_feature_extractor/FeatureMaps/top_down/smoothing_1_depthwise_conv/separable_conv2d/ReadVariableOp", "op": "Const", "attr": {"value": {"tensor": {"dtype": "DT_FLOAT", "tensorShape": {"dim": [{"size": "3"}, {"size": "3"}, {"size": "128"}, {"size": "1"}]}}}, "dtype": {"type": "DT_FLOAT"}}}, {"name": "StatefulPartitionedCall/WeightSharedConvolutionalBoxPredictor/PredictionTower/conv2d_0/separable_conv2d/ReadVariableOp", "op": "Const", "attr": {"dtype": {"type": "DT_FLOAT"}, "value": {"tensor": {"dtype": "DT_FLOAT", "tensorShape": {"dim": [{"size": "3"}, {"size": "3"}, {"size": "128"}, {"size": "1"}]}}}}}, {"name": "StatefulPartitionedCall/WeightSharedConvolutionalBoxPredictor/PredictionTower/conv2d_1/separable_conv2d/ReadVariableOp", "op": "Const", "attr": {"value": {"tensor": {"dtype": "DT_FLOAT", "tensorShape": {"dim": [{"size": "3"}, {"size": "3"}, {"size": "128"}, {"size": "1"}]}}}, "dtype": {"type": "DT_FLOAT"}}}, {"name": "StatefulPartitionedCall/WeightSharedConvolutionalBoxPredictor/PredictionTower/conv2d_2/separable_conv2d/ReadVariableOp", "op": "Const", "attr": {"value": {"tensor": {"dtype": "DT_FLOAT", "tensorShape": {"dim": [{"size": "3"}, {"size": "3"}, {"size": "128"}, {"size": "1"}]}}}, "dtype": {"type": "DT_FLOAT"}}}, {"name": "StatefulPartitionedCall/WeightSharedConvolutionalBoxPredictor/PredictionTower/conv2d_3/separable_conv2d/ReadVariableOp", "op": "Const", "attr": {"value": {"tensor": {"dtype": "DT_FLOAT", "tensorShape": {"dim": [{"size": "3"}, {"size": "3"}, {"size": "128"}, {"size": "1"}]}}}, "dtype": {"type": "DT_FLOAT"}}}, {"name": "StatefulPartitionedCall/WeightSharedConvolutionalBoxPredictor/WeightSharedConvolutionalClassHead/ClassPredictor/separable_conv2d/ReadVariableOp", "op": "Const", "attr": {"value": {"tensor": {"dtype": "DT_FLOAT", "tensorShape": {"dim": [{"size": "3"}, {"size": "3"}, {"size": "128"}, {"size": "1"}]}}}, "dtype": {"type": "DT_FLOAT"}}}, {"name": "StatefulPartitionedCall/WeightSharedConvolutionalBoxPredictor/WeightSharedConvolutionalClassHead/ClassPredictor/separable_conv2d/ReadVariableOp_1", "op": "Const", "attr": {"value": {"tensor": {"dtype": "DT_FLOAT", "tensorShape": {"dim": [{"size": "1"}, {"size": "1"}, {"size": "128"}, {"size": "24"}]}}}, "dtype": {"type": "DT_FLOAT"}}}, {"name": "StatefulPartitionedCall/WeightSharedConvolutionalBoxPredictor/WeightSharedConvolutionalClassHead/ClassPredictor/BiasAdd/ReadVariableOp", "op": "Const", "attr": {"dtype": {"type": "DT_FLOAT"}, "value": {"tensor": {"dtype": "DT_FLOAT", "tensorShape": {"dim": [{"size": "24"}]}}}}}, {"name": "StatefulPartitionedCall/WeightSharedConvolutionalBoxPredictor/WeightSharedConvolutionalClassHead/Reshape_1/shape", "op": "Const", "attr": {"value": {"tensor": {"dtype": "DT_INT32", "tensorShape": {"dim": [{"size": "3"}]}}}, "dtype": {"type": "DT_INT32"}}}, {"name": "StatefulPartitionedCall/ssd_mobile_net_v2_fpn_keras_feature_extractor/FeatureMaps/top_down/nearest_neighbor_upsampling/nearest_neighbor_upsampling/Reshape/shape", "op": "Const", "attr": {"dtype": {"type": "DT_INT32"}, "value": {"tensor": {"dtype": "DT_INT32", "tensorShape": {"dim": [{"size": "4"}]}}}}}, {"name": "StatefulPartitionedCall/ssd_mobile_net_v2_fpn_keras_feature_extractor/FeatureMaps/top_down/nearest_neighbor_upsampling/nearest_neighbor_upsampling/Reshape_1/shape", "op": "Const", "attr": {"value": {"tensor": {"dtype": "DT_INT32", "tensorShape": {"dim": [{"size": "4"}]}}}, "dtype": {"type": "DT_INT32"}}}, {"name": "StatefulPartitionedCall/ssd_mobile_net_v2_fpn_keras_feature_extractor/FeatureMaps/top_down/projection_2/Conv2D/ReadVariableOp", "op": "Const", "attr": {"dtype": {"type": "DT_FLOAT"}, "value": {"tensor": {"dtype": "DT_FLOAT", "tensorShape": {"dim": [{"size": "1"}, {"size": "1"}, {"size": "96"}, {"size": "128"}]}}}}}, {"name": "StatefulPartitionedCall/ssd_mobile_net_v2_fpn_keras_feature_extractor/FeatureMaps/top_down/projection_2/BiasAdd/ReadVariableOp", "op": "Const", "attr": {"value": {"tensor": {"dtype": "DT_FLOAT", "tensorShape": {"dim": [{"size": "128"}]}}}, "dtype": {"type": "DT_FLOAT"}}}, {"name": "StatefulPartitionedCall/ssd_mobile_net_v2_fpn_keras_feature_extractor/FeatureMaps/top_down/smoothing_2_depthwise_conv/separable_conv2d/ReadVariableOp", "op": "Const", "attr": {"value": {"tensor": {"dtype": "DT_FLOAT", "tensorShape": {"dim": [{"size": "3"}, {"size": "3"}, {"size": "128"}, {"size": "1"}]}}}, "dtype": {"type": "DT_FLOAT"}}}, {"name": "StatefulPartitionedCall/WeightSharedConvolutionalBoxPredictor/PredictionTower/conv2d_0/separable_conv2d_1/ReadVariableOp", "op": "Const", "attr": {"dtype": {"type": "DT_FLOAT"}, "value": {"tensor": {"dtype": "DT_FLOAT", "tensorShape": {"dim": [{"size": "3"}, {"size": "3"}, {"size": "128"}, {"size": "1"}]}}}}}, {"name": "StatefulPartitionedCall/WeightSharedConvolutionalBoxPredictor/PredictionTower/conv2d_1/separable_conv2d_1/ReadVariableOp", "op": "Const", "attr": {"dtype": {"type": "DT_FLOAT"}, "value": {"tensor": {"dtype": "DT_FLOAT", "tensorShape": {"dim": [{"size": "3"}, {"size": "3"}, {"size": "128"}, {"size": "1"}]}}}}}, {"name": "StatefulPartitionedCall/WeightSharedConvolutionalBoxPredictor/PredictionTower/conv2d_2/separable_conv2d_1/ReadVariableOp", "op": "Const", "attr": {"value": {"tensor": {"dtype": "DT_FLOAT", "tensorShape": {"dim": [{"size": "3"}, {"size": "3"}, {"size": "128"}, {"size": "1"}]}}}, "dtype": {"type": "DT_FLOAT"}}}, {"name": "StatefulPartitionedCall/WeightSharedConvolutionalBoxPredictor/PredictionTower/conv2d_3/separable_conv2d_1/ReadVariableOp", "op": "Const", "attr": {"value": {"tensor": {"dtype": "DT_FLOAT", "tensorShape": {"dim": [{"size": "3"}, {"size": "3"}, {"size": "128"}, {"size": "1"}]}}}, "dtype": {"type": "DT_FLOAT"}}}, {"name": "StatefulPartitionedCall/WeightSharedConvolutionalBoxPredictor/WeightSharedConvolutionalClassHead/ClassPredictor/separable_conv2d_1/ReadVariableOp", "op": "Const", "attr": {"value": {"tensor": {"dtype": "DT_FLOAT", "tensorShape": {"dim": [{"size": "3"}, {"size": "3"}, {"size": "128"}, {"size": "1"}]}}}, "dtype": {"type": "DT_FLOAT"}}}, {"name": "StatefulPartitionedCall/WeightSharedConvolutionalBoxPredictor/WeightSharedConvolutionalClassHead/ClassPredictor/separable_conv2d_1/ReadVariableOp_1", "op": "Const", "attr": {"value": {"tensor": {"dtype": "DT_FLOAT", "tensorShape": {"dim": [{"size": "1"}, {"size": "1"}, {"size": "128"}, {"size": "24"}]}}}, "dtype": {"type": "DT_FLOAT"}}}, {"name": "StatefulPartitionedCall/WeightSharedConvolutionalBoxPredictor/WeightSharedConvolutionalClassHead/ClassPredictor/BiasAdd_1/ReadVariableOp", "op": "Const", "attr": {"value": {"tensor": {"dtype": "DT_FLOAT", "tensorShape": {"dim": [{"size": "24"}]}}}, "dtype": {"type": "DT_FLOAT"}}}, {"name": "StatefulPartitionedCall/WeightSharedConvolutionalBoxPredictor/WeightSharedConvolutionalClassHead/Reshape_3/shape", "op": "Const", "attr": {"value": {"tensor": {"dtype": "DT_INT32", "tensorShape": {"dim": [{"size": "3"}]}}}, "dtype": {"type": "DT_INT32"}}}, {"name": "StatefulPartitionedCall/WeightSharedConvolutionalBoxPredictor/PredictionTower/conv2d_0/separable_conv2d_2/ReadVariableOp", "op": "Const", "attr": {"dtype": {"type": "DT_FLOAT"}, "value": {"tensor": {"dtype": "DT_FLOAT", "tensorShape": {"dim": [{"size": "3"}, {"size": "3"}, {"size": "128"}, {"size": "1"}]}}}}}, {"name": "StatefulPartitionedCall/WeightSharedConvolutionalBoxPredictor/PredictionTower/conv2d_1/separable_conv2d_2/ReadVariableOp", "op": "Const", "attr": {"dtype": {"type": "DT_FLOAT"}, "value": {"tensor": {"dtype": "DT_FLOAT", "tensorShape": {"dim": [{"size": "3"}, {"size": "3"}, {"size": "128"}, {"size": "1"}]}}}}}, {"name": "StatefulPartitionedCall/WeightSharedConvolutionalBoxPredictor/PredictionTower/conv2d_2/separable_conv2d_2/ReadVariableOp", "op": "Const", "attr": {"dtype": {"type": "DT_FLOAT"}, "value": {"tensor": {"dtype": "DT_FLOAT", "tensorShape": {"dim": [{"size": "3"}, {"size": "3"}, {"size": "128"}, {"size": "1"}]}}}}}, {"name": "StatefulPartitionedCall/WeightSharedConvolutionalBoxPredictor/PredictionTower/conv2d_3/separable_conv2d_2/ReadVariableOp", "op": "Const", "attr": {"dtype": {"type": "DT_FLOAT"}, "value": {"tensor": {"dtype": "DT_FLOAT", "tensorShape": {"dim": [{"size": "3"}, {"size": "3"}, {"size": "128"}, {"size": "1"}]}}}}}, {"name": "StatefulPartitionedCall/WeightSharedConvolutionalBoxPredictor/WeightSharedConvolutionalClassHead/ClassPredictor/separable_conv2d_2/ReadVariableOp", "op": "Const", "attr": {"value": {"tensor": {"dtype": "DT_FLOAT", "tensorShape": {"dim": [{"size": "3"}, {"size": "3"}, {"size": "128"}, {"size": "1"}]}}}, "dtype": {"type": "DT_FLOAT"}}}, {"name": "StatefulPartitionedCall/WeightSharedConvolutionalBoxPredictor/WeightSharedConvolutionalClassHead/ClassPredictor/separable_conv2d_2/ReadVariableOp_1", "op": "Const", "attr": {"dtype": {"type": "DT_FLOAT"}, "value": {"tensor": {"dtype": "DT_FLOAT", "tensorShape": {"dim": [{"size": "1"}, {"size": "1"}, {"size": "128"}, {"size": "24"}]}}}}}, {"name": "StatefulPartitionedCall/WeightSharedConvolutionalBoxPredictor/WeightSharedConvolutionalClassHead/ClassPredictor/BiasAdd_2/ReadVariableOp", "op": "Const", "attr": {"dtype": {"type": "DT_FLOAT"}, "value": {"tensor": {"dtype": "DT_FLOAT", "tensorShape": {"dim": [{"size": "24"}]}}}}}, {"name": "StatefulPartitionedCall/WeightSharedConvolutionalBoxPredictor/WeightSharedConvolutionalClassHead/Reshape_5/shape", "op": "Const", "attr": {"value": {"tensor": {"dtype": "DT_INT32", "tensorShape": {"dim": [{"size": "3"}]}}}, "dtype": {"type": "DT_INT32"}}}, {"name": "StatefulPartitionedCall/WeightSharedConvolutionalBoxPredictor/PredictionTower/conv2d_0/separable_conv2d_3/ReadVariableOp", "op": "Const", "attr": {"dtype": {"type": "DT_FLOAT"}, "value": {"tensor": {"dtype": "DT_FLOAT", "tensorShape": {"dim": [{"size": "3"}, {"size": "3"}, {"size": "128"}, {"size": "1"}]}}}}}, {"name": "StatefulPartitionedCall/WeightSharedConvolutionalBoxPredictor/PredictionTower/conv2d_1/separable_conv2d_3/ReadVariableOp", "op": "Const", "attr": {"dtype": {"type": "DT_FLOAT"}, "value": {"tensor": {"dtype": "DT_FLOAT", "tensorShape": {"dim": [{"size": "3"}, {"size": "3"}, {"size": "128"}, {"size": "1"}]}}}}}, {"name": "StatefulPartitionedCall/WeightSharedConvolutionalBoxPredictor/PredictionTower/conv2d_2/separable_conv2d_3/ReadVariableOp", "op": "Const", "attr": {"value": {"tensor": {"dtype": "DT_FLOAT", "tensorShape": {"dim": [{"size": "3"}, {"size": "3"}, {"size": "128"}, {"size": "1"}]}}}, "dtype": {"type": "DT_FLOAT"}}}, {"name": "StatefulPartitionedCall/WeightSharedConvolutionalBoxPredictor/PredictionTower/conv2d_3/separable_conv2d_3/ReadVariableOp", "op": "Const", "attr": {"dtype": {"type": "DT_FLOAT"}, "value": {"tensor": {"dtype": "DT_FLOAT", "tensorShape": {"dim": [{"size": "3"}, {"size": "3"}, {"size": "128"}, {"size": "1"}]}}}}}, {"name": "StatefulPartitionedCall/WeightSharedConvolutionalBoxPredictor/WeightSharedConvolutionalClassHead/ClassPredictor/separable_conv2d_3/ReadVariableOp", "op": "Const", "attr": {"value": {"tensor": {"dtype": "DT_FLOAT", "tensorShape": {"dim": [{"size": "3"}, {"size": "3"}, {"size": "128"}, {"size": "1"}]}}}, "dtype": {"type": "DT_FLOAT"}}}, {"name": "StatefulPartitionedCall/WeightSharedConvolutionalBoxPredictor/WeightSharedConvolutionalClassHead/ClassPredictor/separable_conv2d_3/ReadVariableOp_1", "op": "Const", "attr": {"dtype": {"type": "DT_FLOAT"}, "value": {"tensor": {"dtype": "DT_FLOAT", "tensorShape": {"dim": [{"size": "1"}, {"size": "1"}, {"size": "128"}, {"size": "24"}]}}}}}, {"name": "StatefulPartitionedCall/WeightSharedConvolutionalBoxPredictor/WeightSharedConvolutionalClassHead/ClassPredictor/BiasAdd_3/ReadVariableOp", "op": "Const", "attr": {"dtype": {"type": "DT_FLOAT"}, "value": {"tensor": {"dtype": "DT_FLOAT", "tensorShape": {"dim": [{"size": "24"}]}}}}}, {"name": "StatefulPartitionedCall/WeightSharedConvolutionalBoxPredictor/WeightSharedConvolutionalClassHead/Reshape_7/shape", "op": "Const", "attr": {"dtype": {"type": "DT_INT32"}, "value": {"tensor": {"dtype": "DT_INT32", "tensorShape": {"dim": [{"size": "3"}]}}}}}, {"name": "StatefulPartitionedCall/map/TensorArrayV2Stack/TensorListStack/element_shape", "op": "Const", "attr": {"dtype": {"type": "DT_INT32"}, "value": {"tensor": {"dtype": "DT_INT32", "tensorShape": {"dim": [{"size": "3"}]}}}}}, {"name": "StatefulPartitionedCall/ssd_mobile_net_v2_fpn_keras_feature_extractor/FeatureMaps/top_down/projection_3/Conv2D/ReadVariableOp", "op": "Const", "attr": {"value": {"tensor": {"dtype": "DT_FLOAT", "tensorShape": {"dim": [{"size": "1"}, {"size": "1"}, {"size": "1280"}, {"size": "128"}]}}}, "dtype": {"type": "DT_FLOAT"}}}, {"name": "StatefulPartitionedCall/ssd_mobile_net_v2_fpn_keras_feature_extractor/FeatureMaps/top_down/projection_3/BiasAdd/ReadVariableOp", "op": "Const", "attr": {"dtype": {"type": "DT_FLOAT"}, "value": {"tensor": {"dtype": "DT_FLOAT", "tensorShape": {"dim": [{"size": "128"}]}}}}}, {"name": "StatefulPartitionedCall/ssd_mobile_net_v2_fpn_keras_feature_extractor/bottom_up_Conv2d_20_depthwise_conv/separable_conv2d/ReadVariableOp", "op": "Const", "attr": {"dtype": {"type": "DT_FLOAT"}, "value": {"tensor": {"dtype": "DT_FLOAT", "tensorShape": {"dim": [{"size": "3"}, {"size": "3"}, {"size": "128"}, {"size": "1"}]}}}}}, {"name": "StatefulPartitionedCall/ssd_mobile_net_v2_fpn_keras_feature_extractor/bottom_up_Conv2d_21_depthwise_conv/separable_conv2d/ReadVariableOp", "op": "Const", "attr": {"dtype": {"type": "DT_FLOAT"}, "value": {"tensor": {"dtype": "DT_FLOAT", "tensorShape": {"dim": [{"size": "3"}, {"size": "3"}, {"size": "128"}, {"size": "1"}]}}}}}, {"name": "StatefulPartitionedCall/WeightSharedConvolutionalBoxPredictor/PredictionTower/conv2d_0/separable_conv2d_4/ReadVariableOp", "op": "Const", "attr": {"value": {"tensor": {"dtype": "DT_FLOAT", "tensorShape": {"dim": [{"size": "3"}, {"size": "3"}, {"size": "128"}, {"size": "1"}]}}}, "dtype": {"type": "DT_FLOAT"}}}, {"name": "StatefulPartitionedCall/WeightSharedConvolutionalBoxPredictor/PredictionTower/conv2d_1/separable_conv2d_4/ReadVariableOp", "op": "Const", "attr": {"value": {"tensor": {"dtype": "DT_FLOAT", "tensorShape": {"dim": [{"size": "3"}, {"size": "3"}, {"size": "128"}, {"size": "1"}]}}}, "dtype": {"type": "DT_FLOAT"}}}, {"name": "StatefulPartitionedCall/WeightSharedConvolutionalBoxPredictor/PredictionTower/conv2d_2/separable_conv2d_4/ReadVariableOp", "op": "Const", "attr": {"dtype": {"type": "DT_FLOAT"}, "value": {"tensor": {"dtype": "DT_FLOAT", "tensorShape": {"dim": [{"size": "3"}, {"size": "3"}, {"size": "128"}, {"size": "1"}]}}}}}, {"name": "StatefulPartitionedCall/WeightSharedConvolutionalBoxPredictor/PredictionTower/conv2d_3/separable_conv2d_4/ReadVariableOp", "op": "Const", "attr": {"dtype": {"type": "DT_FLOAT"}, "value": {"tensor": {"dtype": "DT_FLOAT", "tensorShape": {"dim": [{"size": "3"}, {"size": "3"}, {"size": "128"}, {"size": "1"}]}}}}}, {"name": "StatefulPartitionedCall/WeightSharedConvolutionalBoxPredictor/WeightSharedConvolutionalClassHead/ClassPredictor/separable_conv2d_4/ReadVariableOp", "op": "Const", "attr": {"value": {"tensor": {"dtype": "DT_FLOAT", "tensorShape": {"dim": [{"size": "3"}, {"size": "3"}, {"size": "128"}, {"size": "1"}]}}}, "dtype": {"type": "DT_FLOAT"}}}, {"name": "StatefulPartitionedCall/WeightSharedConvolutionalBoxPredictor/WeightSharedConvolutionalClassHead/ClassPredictor/separable_conv2d_4/ReadVariableOp_1", "op": "Const", "attr": {"value": {"tensor": {"dtype": "DT_FLOAT", "tensorShape": {"dim": [{"size": "1"}, {"size": "1"}, {"size": "128"}, {"size": "24"}]}}}, "dtype": {"type": "DT_FLOAT"}}}, {"name": "StatefulPartitionedCall/WeightSharedConvolutionalBoxPredictor/WeightSharedConvolutionalClassHead/ClassPredictor/BiasAdd_4/ReadVariableOp", "op": "Const", "attr": {"dtype": {"type": "DT_FLOAT"}, "value": {"tensor": {"dtype": "DT_FLOAT", "tensorShape": {"dim": [{"size": "24"}]}}}}}, {"name": "StatefulPartitionedCall/WeightSharedConvolutionalBoxPredictor/WeightSharedConvolutionalClassHead/Reshape_9/shape", "op": "Const", "attr": {"dtype": {"type": "DT_INT32"}, "value": {"tensor": {"dtype": "DT_INT32", "tensorShape": {"dim": [{"size": "3"}]}}}}}, {"name": "StatefulPartitionedCall/concat_1/axis", "op": "Const", "attr": {"value": {"tensor": {"dtype": "DT_INT32", "tensorShape": {}}}, "dtype": {"type": "DT_INT32"}}}, {"name": "StatefulPartitionedCall/Postprocessor/Slice/begin", "op": "Const", "attr": {"dtype": {"type": "DT_INT32"}, "value": {"tensor": {"dtype": "DT_INT32", "tensorShape": {"dim": [{"size": "3"}]}}}}}, {"name": "StatefulPartitionedCall/Postprocessor/Slice/size", "op": "Const", "attr": {"value": {"tensor": {"dtype": "DT_INT32", "tensorShape": {"dim": [{"size": "3"}]}}}, "dtype": {"type": "DT_INT32"}}}, {"name": "StatefulPartitionedCall/Postprocessor/BatchMultiClassNonMaxSuppression/MultiClassNonMaxSuppression/Slice_2/begin", "op": "Const", "attr": {"value": {"tensor": {"dtype": "DT_INT32", "tensorShape": {"dim": [{"size": "2"}]}}}, "dtype": {"type": "DT_INT32"}}}, {"name": "StatefulPartitionedCall/Postprocessor/BatchMultiClassNonMaxSuppression/MultiClassNonMaxSuppression/stack_2", "op": "Const", "attr": {"dtype": {"type": "DT_INT32"}, "value": {"tensor": {"dtype": "DT_INT32", "tensorShape": {"dim": [{"size": "2"}]}}}}}, {"name": "StatefulPartitionedCall/Postprocessor/BatchMultiClassNonMaxSuppression/MultiClassNonMaxSuppression/Reshape_2/shape", "op": "Const", "attr": {"value": {"tensor": {"dtype": "DT_INT32", "tensorShape": {"dim": [{"size": "1"}]}}}, "dtype": {"type": "DT_INT32"}}}, {"name": "StatefulPartitionedCall/Postprocessor/BatchMultiClassNonMaxSuppression/MultiClassNonMaxSuppression/Minimum_2", "op": "Const", "attr": {"dtype": {"type": "DT_INT32"}, "value": {"tensor": {"dtype": "DT_INT32", "tensorShape": {}}}}}, {"name": "StatefulPartitionedCall/Postprocessor/BatchMultiClassNonMaxSuppression/MultiClassNonMaxSuppression/non_max_suppression_with_scores_2/iou_threshold", "op": "Const", "attr": {"dtype": {"type": "DT_FLOAT"}, "value": {"tensor": {"dtype": "DT_FLOAT", "tensorShape": {}}}}}, {"name": "StatefulPartitionedCall/Postprocessor/BatchMultiClassNonMaxSuppression/MultiClassNonMaxSuppression/non_max_suppression_with_scores_2/score_threshold", "op": "Const", "attr": {"dtype": {"type": "DT_FLOAT"}, "value": {"tensor": {"dtype": "DT_FLOAT", "tensorShape": {}}}}}, {"name": "StatefulPartitionedCall/Postprocessor/BatchMultiClassNonMaxSuppression/MultiClassNonMaxSuppression/non_max_suppression_with_scores_2/soft_nms_sigma", "op": "Const", "attr": {"value": {"tensor": {"dtype": "DT_FLOAT", "tensorShape": {}}}, "dtype": {"type": "DT_FLOAT"}}}, {"name": "StatefulPartitionedCall/Postprocessor/BatchMultiClassNonMaxSuppression/MultiClassNonMaxSuppression/strided_slice_6/stack", "op": "Const", "attr": {"value": {"tensor": {"dtype": "DT_INT32", "tensorShape": {"dim": [{"size": "1"}]}}}, "dtype": {"type": "DT_INT32"}}}, {"name": "StatefulPartitionedCall/Postprocessor/BatchMultiClassNonMaxSuppression/MultiClassNonMaxSuppression/strided_slice_6/stack_1", "op": "Const", "attr": {"dtype": {"type": "DT_INT32"}, "value": {"tensor": {"dtype": "DT_INT32", "tensorShape": {"dim": [{"size": "1"}]}}}}}, {"name": "StatefulPartitionedCall/Postprocessor/BatchMultiClassNonMaxSuppression/MultiClassNonMaxSuppression/strided_slice_6/stack_2", "op": "Const", "attr": {"value": {"tensor": {"dtype": "DT_INT32", "tensorShape": {"dim": [{"size": "1"}]}}}, "dtype": {"type": "DT_INT32"}}}, {"name": "StatefulPartitionedCall/Postprocessor/BatchMultiClassNonMaxSuppression/MultiClassNonMaxSuppression/zeros_4/Reshape/shape", "op": "Const", "attr": {"dtype": {"type": "DT_INT32"}, "value": {"tensor": {"dtype": "DT_INT32", "tensorShape": {"dim": [{"size": "1"}]}}}}}, {"name": "StatefulPartitionedCall/Postprocessor/BatchMultiClassNonMaxSuppression/MultiClassNonMaxSuppression/zeros_4/Const", "op": "Const", "attr": {"dtype": {"type": "DT_INT32"}, "value": {"tensor": {"dtype": "DT_INT32", "tensorShape": {}}}}}, {"name": "StatefulPartitionedCall/Postprocessor/BatchMultiClassNonMaxSuppression/MultiClassNonMaxSuppression/concat_4/axis", "op": "Const", "attr": {"dtype": {"type": "DT_INT32"}, "value": {"tensor": {"dtype": "DT_INT32", "tensorShape": {}}}}}, {"name": "StatefulPartitionedCall/Postprocessor/BatchMultiClassNonMaxSuppression/MultiClassNonMaxSuppression/Gather_2/GatherV2_5/axis", "op": "Const", "attr": {"value": {"tensor": {"dtype": "DT_INT32", "tensorShape": {}}}, "dtype": {"type": "DT_INT32"}}}, {"name": "StatefulPartitionedCall/Postprocessor/BatchMultiClassNonMaxSuppression/MultiClassNonMaxSuppression/Concatenate/concat/axis", "op": "Const", "attr": {"dtype": {"type": "DT_INT32"}, "value": {"tensor": {"dtype": "DT_INT32", "tensorShape": {}}}}}, {"name": "StatefulPartitionedCall/Postprocessor/BatchMultiClassNonMaxSuppression/MultiClassNonMaxSuppression/SortByField/strided_slice/stack", "op": "Const", "attr": {"value": {"tensor": {"dtype": "DT_INT32", "tensorShape": {"dim": [{"size": "1"}]}}}, "dtype": {"type": "DT_INT32"}}}, {"name": "StatefulPartitionedCall/Postprocessor/BatchMultiClassNonMaxSuppression/MultiClassNonMaxSuppression/SortByField/strided_slice/stack_1", "op": "Const", "attr": {"value": {"tensor": {"dtype": "DT_INT32", "tensorShape": {"dim": [{"size": "1"}]}}}, "dtype": {"type": "DT_INT32"}}}, {"name": "StatefulPartitionedCall/Postprocessor/BatchMultiClassNonMaxSuppression/MultiClassNonMaxSuppression/SortByField/strided_slice/stack_2", "op": "Const", "attr": {"dtype": {"type": "DT_INT32"}, "value": {"tensor": {"dtype": "DT_INT32", "tensorShape": {"dim": [{"size": "1"}]}}}}}, {"name": "StatefulPartitionedCall/Postprocessor/BatchMultiClassNonMaxSuppression/MultiClassNonMaxSuppression/SortByField/Gather/GatherV2_6/axis", "op": "Const", "attr": {"dtype": {"type": "DT_INT32"}, "value": {"tensor": {"dtype": "DT_INT32", "tensorShape": {}}}}}, {"name": "StatefulPartitionedCall/Postprocessor/BatchMultiClassNonMaxSuppression/MultiClassNonMaxSuppression/ClipToWindow/strided_slice_3/stack", "op": "Const", "attr": {"dtype": {"type": "DT_INT32"}, "value": {"tensor": {"dtype": "DT_INT32", "tensorShape": {"dim": [{"size": "1"}]}}}}}, {"name": "StatefulPartitionedCall/Postprocessor/BatchMultiClassNonMaxSuppression/MultiClassNonMaxSuppression/ClipToWindow/strided_slice_3/stack_1", "op": "Const", "attr": {"dtype": {"type": "DT_INT32"}, "value": {"tensor": {"dtype": "DT_INT32", "tensorShape": {"dim": [{"size": "1"}]}}}}}, {"name": "StatefulPartitionedCall/Postprocessor/BatchMultiClassNonMaxSuppression/MultiClassNonMaxSuppression/ClipToWindow/strided_slice_3/stack_2", "op": "Const", "attr": {"value": {"tensor": {"dtype": "DT_INT32", "tensorShape": {"dim": [{"size": "1"}]}}}, "dtype": {"type": "DT_INT32"}}}, {"name": "StatefulPartitionedCall/Postprocessor/zeros_like", "op": "Const", "attr": {"dtype": {"type": "DT_FLOAT"}, "value": {"tensor": {"dtype": "DT_FLOAT", "tensorShape": {"dim": [{"size": "1"}]}}}}}, {"name": "StatefulPartitionedCall/Postprocessor/zeros_like_1", "op": "Const", "attr": {"dtype": {"type": "DT_FLOAT"}, "value": {"tensor": {"dtype": "DT_FLOAT", "tensorShape": {"dim": [{"size": "1"}]}}}}}, {"name": "ConstantFolding/StatefulPartitionedCall/Postprocessor/truediv_recip", "op": "Const", "attr": {"dtype": {"type": "DT_FLOAT"}, "value": {"tensor": {"dtype": "DT_FLOAT", "tensorShape": {}}}}}, {"name": "StatefulPartitionedCall/map/while/loop_counter", "op": "Const", "attr": {"value": {"tensor": {"dtype": "DT_INT32", "tensorShape": {}}}, "dtype": {"type": "DT_INT32"}}}, {"name": "StatefulPartitionedCall/map/while/maximum_iterations", "op": "Const", "attr": {"dtype": {"type": "DT_INT32"}, "value": {"tensor": {"dtype": "DT_INT32", "tensorShape": {}}}}}, {"name": "StatefulPartitionedCall/map/Const", "op": "Const", "attr": {"dtype": {"type": "DT_INT32"}, "value": {"tensor": {"dtype": "DT_INT32", "tensorShape": {}}}}}, {"name": "StatefulPartitionedCall/map/TensorArrayV2_1/element_shape", "op": "Const", "attr": {"dtype": {"type": "DT_INT32"}, "value": {"tensor": {"dtype": "DT_INT32", "tensorShape": {}}}}}, {"name": "StatefulPartitionedCall/map/TensorArrayV2_1/num_elements", "op": "Const", "attr": {"dtype": {"type": "DT_INT32"}, "value": {"tensor": {"dtype": "DT_INT32", "tensorShape": {}}}}}, {"name": "StatefulPartitionedCall/map/TensorArrayV2_2/element_shape", "op": "Const", "attr": {"dtype": {"type": "DT_INT32"}, "value": {"tensor": {"dtype": "DT_INT32", "tensorShape": {}}}}}, {"name": "StatefulPartitionedCall/map/TensorArrayV2_2/num_elements", "op": "Const", "attr": {"value": {"tensor": {"dtype": "DT_INT32", "tensorShape": {}}}, "dtype": {"type": "DT_INT32"}}}, {"name": "StatefulPartitionedCall/map/TensorArrayUnstack/TensorListFromTensor/element_shape", "op": "Const", "attr": {"value": {"tensor": {"dtype": "DT_INT32", "tensorShape": {"dim": [{"size": "3"}]}}}, "dtype": {"type": "DT_INT32"}}}, {"name": "StatefulPartitionedCall/map/TensorArrayV2Stack_1/TensorListStack/element_shape", "op": "Const", "attr": {"dtype": {"type": "DT_INT32"}, "value": {"tensor": {"dtype": "DT_INT32", "tensorShape": {"dim": [{"size": "1"}]}}}}}, {"name": "ConstantFolding/StatefulPartitionedCall/Postprocessor/truediv_1_recip", "op": "Const", "attr": {"dtype": {"type": "DT_FLOAT"}, "value": {"tensor": {"dtype": "DT_FLOAT", "tensorShape": {}}}}}, {"name": "StatefulPartitionedCall/Postprocessor/BatchMultiClassNonMaxSuppression/MultiClassNonMaxSuppression/ClipToWindow/strided_slice_1/stack", "op": "Const", "attr": {"dtype": {"type": "DT_INT32"}, "value": {"tensor": {"dtype": "DT_INT32", "tensorShape": {"dim": [{"size": "1"}]}}}}}, {"name": "StatefulPartitionedCall/Postprocessor/BatchMultiClassNonMaxSuppression/MultiClassNonMaxSuppression/ClipToWindow/strided_slice_1/stack_1", "op": "Const", "attr": {"value": {"tensor": {"dtype": "DT_INT32", "tensorShape": {"dim": [{"size": "1"}]}}}, "dtype": {"type": "DT_INT32"}}}, {"name": "StatefulPartitionedCall/Postprocessor/BatchMultiClassNonMaxSuppression/MultiClassNonMaxSuppression/ClipToWindow/strided_slice_1/stack_2", "op": "Const", "attr": {"dtype": {"type": "DT_INT32"}, "value": {"tensor": {"dtype": "DT_INT32", "tensorShape": {"dim": [{"size": "1"}]}}}}}, {"name": "StatefulPartitionedCall/Postprocessor/BatchMultiClassNonMaxSuppression/MultiClassNonMaxSuppression/ClipToWindow/concat/axis", "op": "Const", "attr": {"value": {"tensor": {"dtype": "DT_INT32", "tensorShape": {}}}, "dtype": {"type": "DT_INT32"}}}, {"name": "StatefulPartitionedCall/Postprocessor/BatchMultiClassNonMaxSuppression/MultiClassNonMaxSuppression/ClipToWindow/Greater/y", "op": "Const", "attr": {"value": {"tensor": {"dtype": "DT_FLOAT", "tensorShape": {}}}, "dtype": {"type": "DT_FLOAT"}}}, {"name": "StatefulPartitionedCall/Postprocessor/BatchMultiClassNonMaxSuppression/MultiClassNonMaxSuppression/ClipToWindow/Reshape/shape", "op": "Const", "attr": {"value": {"tensor": {"dtype": "DT_INT32", "tensorShape": {"dim": [{"size": "1"}]}}}, "dtype": {"type": "DT_INT32"}}}, {"name": "StatefulPartitionedCall/Postprocessor/BatchMultiClassNonMaxSuppression/MultiClassNonMaxSuppression/ClipToWindow/Gather/GatherV2_6/axis", "op": "Const", "attr": {"value": {"tensor": {"dtype": "DT_INT32", "tensorShape": {}}}, "dtype": {"type": "DT_INT32"}}}, {"name": "StatefulPartitionedCall/Postprocessor/BatchMultiClassNonMaxSuppression/MultiClassNonMaxSuppression/strided_slice_7/stack", "op": "Const", "attr": {"value": {"tensor": {"dtype": "DT_INT32", "tensorShape": {"dim": [{"size": "1"}]}}}, "dtype": {"type": "DT_INT32"}}}, {"name": "StatefulPartitionedCall/Postprocessor/BatchMultiClassNonMaxSuppression/MultiClassNonMaxSuppression/strided_slice_7/stack_1", "op": "Const", "attr": {"dtype": {"type": "DT_INT32"}, "value": {"tensor": {"dtype": "DT_INT32", "tensorShape": {"dim": [{"size": "1"}]}}}}}, {"name": "StatefulPartitionedCall/Postprocessor/BatchMultiClassNonMaxSuppression/MultiClassNonMaxSuppression/strided_slice_7/stack_2", "op": "Const", "attr": {"value": {"tensor": {"dtype": "DT_INT32", "tensorShape": {"dim": [{"size": "1"}]}}}, "dtype": {"type": "DT_INT32"}}}, {"name": "StatefulPartitionedCall/Postprocessor/BatchMultiClassNonMaxSuppression/MultiClassNonMaxSuppression/ones_3/Reshape/shape", "op": "Const", "attr": {"dtype": {"type": "DT_INT32"}, "value": {"tensor": {"dtype": "DT_INT32", "tensorShape": {"dim": [{"size": "1"}]}}}}}, {"name": "StatefulPartitionedCall/Postprocessor/BatchMultiClassNonMaxSuppression/MultiClassNonMaxSuppression/ones_3/Const", "op": "Const", "attr": {"value": {"tensor": {"dtype": "DT_FLOAT", "tensorShape": {}}}, "dtype": {"type": "DT_FLOAT"}}}, {"name": "input_tensor", "op": "Placeholder", "attr": {"shape": {"shape": {"dim": [{"size": "1"}, {"size": "-1"}, {"size": "-1"}, {"size": "3"}]}}, "dtype": {"type": "DT_UINT8"}}}, {"name": "StatefulPartitionedCall/ssd_mobile_net_v2_fpn_keras_feature_extractor/model/Conv1/Conv2D_weights", "op": "Const", "attr": {"value": {"tensor": {"dtype": "DT_FLOAT", "tensorShape": {"dim": [{"size": "3"}, {"size": "3"}, {"size": "3"}, {"size": "32"}]}}}, "dtype": {"type": "DT_FLOAT"}}}, {"name": "StatefulPartitionedCall/ssd_mobile_net_v2_fpn_keras_feature_extractor/model/Conv1/Conv2D_bn_offset", "op": "Const", "attr": {"dtype": {"type": "DT_FLOAT"}, "value": {"tensor": {"dtype": "DT_FLOAT", "tensorShape": {"dim": [{"size": "32"}]}}}}}, {"name": "StatefulPartitionedCall/ssd_mobile_net_v2_fpn_keras_feature_extractor/model/expanded_conv_depthwise/depthwise_weights", "op": "Const", "attr": {"value": {"tensor": {"dtype": "DT_FLOAT", "tensorShape": {"dim": [{"size": "3"}, {"size": "3"}, {"size": "32"}, {"size": "1"}]}}}, "dtype": {"type": "DT_FLOAT"}}}, {"name": "StatefulPartitionedCall/ssd_mobile_net_v2_fpn_keras_feature_extractor/model/expanded_conv_depthwise/depthwise_bn_offset", "op": "Const", "attr": {"dtype": {"type": "DT_FLOAT"}, "value": {"tensor": {"dtype": "DT_FLOAT", "tensorShape": {"dim": [{"size": "32"}]}}}}}, {"name": "StatefulPartitionedCall/ssd_mobile_net_v2_fpn_keras_feature_extractor/model/expanded_conv_project/Conv2D_weights", "op": "Const", "attr": {"dtype": {"type": "DT_FLOAT"}, "value": {"tensor": {"dtype": "DT_FLOAT", "tensorShape": {"dim": [{"size": "1"}, {"size": "1"}, {"size": "32"}, {"size": "16"}]}}}}}, {"name": "StatefulPartitionedCall/ssd_mobile_net_v2_fpn_keras_feature_extractor/model/expanded_conv_project/Conv2D_bn_offset", "op": "Const", "attr": {"dtype": {"type": "DT_FLOAT"}, "value": {"tensor": {"dtype": "DT_FLOAT", "tensorShape": {"dim": [{"size": "16"}]}}}}}, {"name": "StatefulPartitionedCall/ssd_mobile_net_v2_fpn_keras_feature_extractor/model/block_1_expand/Conv2D_weights", "op": "Const", "attr": {"value": {"tensor": {"dtype": "DT_FLOAT", "tensorShape": {"dim": [{"size": "1"}, {"size": "1"}, {"size": "16"}, {"size": "96"}]}}}, "dtype": {"type": "DT_FLOAT"}}}, {"name": "StatefulPartitionedCall/ssd_mobile_net_v2_fpn_keras_feature_extractor/model/block_1_expand/Conv2D_bn_offset", "op": "Const", "attr": {"value": {"tensor": {"dtype": "DT_FLOAT", "tensorShape": {"dim": [{"size": "96"}]}}}, "dtype": {"type": "DT_FLOAT"}}}, {"name": "StatefulPartitionedCall/ssd_mobile_net_v2_fpn_keras_feature_extractor/model/block_1_depthwise/depthwise_weights", "op": "Const", "attr": {"dtype": {"type": "DT_FLOAT"}, "value": {"tensor": {"dtype": "DT_FLOAT", "tensorShape": {"dim": [{"size": "3"}, {"size": "3"}, {"size": "96"}, {"size": "1"}]}}}}}, {"name": "StatefulPartitionedCall/ssd_mobile_net_v2_fpn_keras_feature_extractor/model/block_1_depthwise/depthwise_bn_offset", "op": "Const", "attr": {"dtype": {"type": "DT_FLOAT"}, "value": {"tensor": {"dtype": "DT_FLOAT", "tensorShape": {"dim": [{"size": "96"}]}}}}}, {"name": "StatefulPartitionedCall/ssd_mobile_net_v2_fpn_keras_feature_extractor/model/block_1_project/Conv2D_weights", "op": "Const", "attr": {"value": {"tensor": {"dtype": "DT_FLOAT", "tensorShape": {"dim": [{"size": "1"}, {"size": "1"}, {"size": "96"}, {"size": "24"}]}}}, "dtype": {"type": "DT_FLOAT"}}}, {"name": "StatefulPartitionedCall/ssd_mobile_net_v2_fpn_keras_feature_extractor/model/block_1_project/Conv2D_bn_offset", "op": "Const", "attr": {"dtype": {"type": "DT_FLOAT"}, "value": {"tensor": {"dtype": "DT_FLOAT", "tensorShape": {"dim": [{"size": "24"}]}}}}}, {"name": "StatefulPartitionedCall/ssd_mobile_net_v2_fpn_keras_feature_extractor/model/block_2_expand/Conv2D_weights", "op": "Const", "attr": {"dtype": {"type": "DT_FLOAT"}, "value": {"tensor": {"dtype": "DT_FLOAT", "tensorShape": {"dim": [{"size": "1"}, {"size": "1"}, {"size": "24"}, {"size": "144"}]}}}}}, {"name": "StatefulPartitionedCall/ssd_mobile_net_v2_fpn_keras_feature_extractor/model/block_2_expand/Conv2D_bn_offset", "op": "Const", "attr": {"dtype": {"type": "DT_FLOAT"}, "value": {"tensor": {"dtype": "DT_FLOAT", "tensorShape": {"dim": [{"size": "144"}]}}}}}, {"name": "StatefulPartitionedCall/ssd_mobile_net_v2_fpn_keras_feature_extractor/model/block_2_depthwise/depthwise_weights", "op": "Const", "attr": {"dtype": {"type": "DT_FLOAT"}, "value": {"tensor": {"dtype": "DT_FLOAT", "tensorShape": {"dim": [{"size": "3"}, {"size": "3"}, {"size": "144"}, {"size": "1"}]}}}}}, {"name": "StatefulPartitionedCall/ssd_mobile_net_v2_fpn_keras_feature_extractor/model/block_2_depthwise/depthwise_bn_offset", "op": "Const", "attr": {"dtype": {"type": "DT_FLOAT"}, "value": {"tensor": {"dtype": "DT_FLOAT", "tensorShape": {"dim": [{"size": "144"}]}}}}}, {"name": "StatefulPartitionedCall/ssd_mobile_net_v2_fpn_keras_feature_extractor/model/block_2_project/Conv2D_weights", "op": "Const", "attr": {"value": {"tensor": {"dtype": "DT_FLOAT", "tensorShape": {"dim": [{"size": "1"}, {"size": "1"}, {"size": "144"}, {"size": "24"}]}}}, "dtype": {"type": "DT_FLOAT"}}}, {"name": "StatefulPartitionedCall/ssd_mobile_net_v2_fpn_keras_feature_extractor/model/block_2_project/Conv2D_bn_offset", "op": "Const", "attr": {"dtype": {"type": "DT_FLOAT"}, "value": {"tensor": {"dtype": "DT_FLOAT", "tensorShape": {"dim": [{"size": "24"}]}}}}}, {"name": "StatefulPartitionedCall/ssd_mobile_net_v2_fpn_keras_feature_extractor/model/block_3_expand/Conv2D_weights", "op": "Const", "attr": {"dtype": {"type": "DT_FLOAT"}, "value": {"tensor": {"dtype": "DT_FLOAT", "tensorShape": {"dim": [{"size": "1"}, {"size": "1"}, {"size": "24"}, {"size": "144"}]}}}}}, {"name": "StatefulPartitionedCall/ssd_mobile_net_v2_fpn_keras_feature_extractor/model/block_3_expand/Conv2D_bn_offset", "op": "Const", "attr": {"value": {"tensor": {"dtype": "DT_FLOAT", "tensorShape": {"dim": [{"size": "144"}]}}}, "dtype": {"type": "DT_FLOAT"}}}, {"name": "StatefulPartitionedCall/ssd_mobile_net_v2_fpn_keras_feature_extractor/model/block_3_depthwise/depthwise_weights", "op": "Const", "attr": {"value": {"tensor": {"dtype": "DT_FLOAT", "tensorShape": {"dim": [{"size": "3"}, {"size": "3"}, {"size": "144"}, {"size": "1"}]}}}, "dtype": {"type": "DT_FLOAT"}}}, {"name": "StatefulPartitionedCall/ssd_mobile_net_v2_fpn_keras_feature_extractor/model/block_3_depthwise/depthwise_bn_offset", "op": "Const", "attr": {"value": {"tensor": {"dtype": "DT_FLOAT", "tensorShape": {"dim": [{"size": "144"}]}}}, "dtype": {"type": "DT_FLOAT"}}}, {"name": "StatefulPartitionedCall/ssd_mobile_net_v2_fpn_keras_feature_extractor/model/block_3_project/Conv2D_weights", "op": "Const", "attr": {"dtype": {"type": "DT_FLOAT"}, "value": {"tensor": {"dtype": "DT_FLOAT", "tensorShape": {"dim": [{"size": "1"}, {"size": "1"}, {"size": "144"}, {"size": "32"}]}}}}}, {"name": "StatefulPartitionedCall/ssd_mobile_net_v2_fpn_keras_feature_extractor/model/block_3_project/Conv2D_bn_offset", "op": "Const", "attr": {"dtype": {"type": "DT_FLOAT"}, "value": {"tensor": {"dtype": "DT_FLOAT", "tensorShape": {"dim": [{"size": "32"}]}}}}}, {"name": "StatefulPartitionedCall/ssd_mobile_net_v2_fpn_keras_feature_extractor/model/block_4_expand/Conv2D_weights", "op": "Const", "attr": {"dtype": {"type": "DT_FLOAT"}, "value": {"tensor": {"dtype": "DT_FLOAT", "tensorShape": {"dim": [{"size": "1"}, {"size": "1"}, {"size": "32"}, {"size": "192"}]}}}}}, {"name": "StatefulPartitionedCall/ssd_mobile_net_v2_fpn_keras_feature_extractor/model/block_4_expand/Conv2D_bn_offset", "op": "Const", "attr": {"dtype": {"type": "DT_FLOAT"}, "value": {"tensor": {"dtype": "DT_FLOAT", "tensorShape": {"dim": [{"size": "192"}]}}}}}, {"name": "StatefulPartitionedCall/ssd_mobile_net_v2_fpn_keras_feature_extractor/model/block_4_depthwise/depthwise_weights", "op": "Const", "attr": {"value": {"tensor": {"dtype": "DT_FLOAT", "tensorShape": {"dim": [{"size": "3"}, {"size": "3"}, {"size": "192"}, {"size": "1"}]}}}, "dtype": {"type": "DT_FLOAT"}}}, {"name": "StatefulPartitionedCall/ssd_mobile_net_v2_fpn_keras_feature_extractor/model/block_4_depthwise/depthwise_bn_offset", "op": "Const", "attr": {"dtype": {"type": "DT_FLOAT"}, "value": {"tensor": {"dtype": "DT_FLOAT", "tensorShape": {"dim": [{"size": "192"}]}}}}}, {"name": "StatefulPartitionedCall/ssd_mobile_net_v2_fpn_keras_feature_extractor/model/block_4_project/Conv2D_weights", "op": "Const", "attr": {"dtype": {"type": "DT_FLOAT"}, "value": {"tensor": {"dtype": "DT_FLOAT", "tensorShape": {"dim": [{"size": "1"}, {"size": "1"}, {"size": "192"}, {"size": "32"}]}}}}}, {"name": "StatefulPartitionedCall/ssd_mobile_net_v2_fpn_keras_feature_extractor/model/block_4_project/Conv2D_bn_offset", "op": "Const", "attr": {"dtype": {"type": "DT_FLOAT"}, "value": {"tensor": {"dtype": "DT_FLOAT", "tensorShape": {"dim": [{"size": "32"}]}}}}}, {"name": "StatefulPartitionedCall/ssd_mobile_net_v2_fpn_keras_feature_extractor/model/block_5_expand/Conv2D_weights", "op": "Const", "attr": {"value": {"tensor": {"dtype": "DT_FLOAT", "tensorShape": {"dim": [{"size": "1"}, {"size": "1"}, {"size": "32"}, {"size": "192"}]}}}, "dtype": {"type": "DT_FLOAT"}}}, {"name": "StatefulPartitionedCall/ssd_mobile_net_v2_fpn_keras_feature_extractor/model/block_5_expand/Conv2D_bn_offset", "op": "Const", "attr": {"value": {"tensor": {"dtype": "DT_FLOAT", "tensorShape": {"dim": [{"size": "192"}]}}}, "dtype": {"type": "DT_FLOAT"}}}, {"name": "StatefulPartitionedCall/ssd_mobile_net_v2_fpn_keras_feature_extractor/model/block_5_depthwise/depthwise_weights", "op": "Const", "attr": {"dtype": {"type": "DT_FLOAT"}, "value": {"tensor": {"dtype": "DT_FLOAT", "tensorShape": {"dim": [{"size": "3"}, {"size": "3"}, {"size": "192"}, {"size": "1"}]}}}}}, {"name": "StatefulPartitionedCall/ssd_mobile_net_v2_fpn_keras_feature_extractor/model/block_5_depthwise/depthwise_bn_offset", "op": "Const", "attr": {"dtype": {"type": "DT_FLOAT"}, "value": {"tensor": {"dtype": "DT_FLOAT", "tensorShape": {"dim": [{"size": "192"}]}}}}}, {"name": "StatefulPartitionedCall/ssd_mobile_net_v2_fpn_keras_feature_extractor/model/block_5_project/Conv2D_weights", "op": "Const", "attr": {"value": {"tensor": {"dtype": "DT_FLOAT", "tensorShape": {"dim": [{"size": "1"}, {"size": "1"}, {"size": "192"}, {"size": "32"}]}}}, "dtype": {"type": "DT_FLOAT"}}}, {"name": "StatefulPartitionedCall/ssd_mobile_net_v2_fpn_keras_feature_extractor/model/block_5_project/Conv2D_bn_offset", "op": "Const", "attr": {"dtype": {"type": "DT_FLOAT"}, "value": {"tensor": {"dtype": "DT_FLOAT", "tensorShape": {"dim": [{"size": "32"}]}}}}}, {"name": "StatefulPartitionedCall/ssd_mobile_net_v2_fpn_keras_feature_extractor/model/block_6_expand/Conv2D_weights", "op": "Const", "attr": {"value": {"tensor": {"dtype": "DT_FLOAT", "tensorShape": {"dim": [{"size": "1"}, {"size": "1"}, {"size": "32"}, {"size": "192"}]}}}, "dtype": {"type": "DT_FLOAT"}}}, {"name": "StatefulPartitionedCall/ssd_mobile_net_v2_fpn_keras_feature_extractor/model/block_6_expand/Conv2D_bn_offset", "op": "Const", "attr": {"value": {"tensor": {"dtype": "DT_FLOAT", "tensorShape": {"dim": [{"size": "192"}]}}}, "dtype": {"type": "DT_FLOAT"}}}, {"name": "StatefulPartitionedCall/ssd_mobile_net_v2_fpn_keras_feature_extractor/model/block_6_depthwise/depthwise_weights", "op": "Const", "attr": {"value": {"tensor": {"dtype": "DT_FLOAT", "tensorShape": {"dim": [{"size": "3"}, {"size": "3"}, {"size": "192"}, {"size": "1"}]}}}, "dtype": {"type": "DT_FLOAT"}}}, {"name": "StatefulPartitionedCall/ssd_mobile_net_v2_fpn_keras_feature_extractor/model/block_6_depthwise/depthwise_bn_offset", "op": "Const", "attr": {"value": {"tensor": {"dtype": "DT_FLOAT", "tensorShape": {"dim": [{"size": "192"}]}}}, "dtype": {"type": "DT_FLOAT"}}}, {"name": "StatefulPartitionedCall/ssd_mobile_net_v2_fpn_keras_feature_extractor/model/block_6_project/Conv2D_weights", "op": "Const", "attr": {"dtype": {"type": "DT_FLOAT"}, "value": {"tensor": {"dtype": "DT_FLOAT", "tensorShape": {"dim": [{"size": "1"}, {"size": "1"}, {"size": "192"}, {"size": "64"}]}}}}}, {"name": "StatefulPartitionedCall/ssd_mobile_net_v2_fpn_keras_feature_extractor/model/block_6_project/Conv2D_bn_offset", "op": "Const", "attr": {"dtype": {"type": "DT_FLOAT"}, "value": {"tensor": {"dtype": "DT_FLOAT", "tensorShape": {"dim": [{"size": "64"}]}}}}}, {"name": "StatefulPartitionedCall/ssd_mobile_net_v2_fpn_keras_feature_extractor/model/block_7_expand/Conv2D_weights", "op": "Const", "attr": {"value": {"tensor": {"dtype": "DT_FLOAT", "tensorShape": {"dim": [{"size": "1"}, {"size": "1"}, {"size": "64"}, {"size": "384"}]}}}, "dtype": {"type": "DT_FLOAT"}}}, {"name": "StatefulPartitionedCall/ssd_mobile_net_v2_fpn_keras_feature_extractor/model/block_7_expand/Conv2D_bn_offset", "op": "Const", "attr": {"value": {"tensor": {"dtype": "DT_FLOAT", "tensorShape": {"dim": [{"size": "384"}]}}}, "dtype": {"type": "DT_FLOAT"}}}, {"name": "StatefulPartitionedCall/ssd_mobile_net_v2_fpn_keras_feature_extractor/model/block_7_depthwise/depthwise_weights", "op": "Const", "attr": {"dtype": {"type": "DT_FLOAT"}, "value": {"tensor": {"dtype": "DT_FLOAT", "tensorShape": {"dim": [{"size": "3"}, {"size": "3"}, {"size": "384"}, {"size": "1"}]}}}}}, {"name": "StatefulPartitionedCall/ssd_mobile_net_v2_fpn_keras_feature_extractor/model/block_7_depthwise/depthwise_bn_offset", "op": "Const", "attr": {"dtype": {"type": "DT_FLOAT"}, "value": {"tensor": {"dtype": "DT_FLOAT", "tensorShape": {"dim": [{"size": "384"}]}}}}}, {"name": "StatefulPartitionedCall/ssd_mobile_net_v2_fpn_keras_feature_extractor/model/block_7_project/Conv2D_weights", "op": "Const", "attr": {"value": {"tensor": {"dtype": "DT_FLOAT", "tensorShape": {"dim": [{"size": "1"}, {"size": "1"}, {"size": "384"}, {"size": "64"}]}}}, "dtype": {"type": "DT_FLOAT"}}}, {"name": "StatefulPartitionedCall/ssd_mobile_net_v2_fpn_keras_feature_extractor/model/block_7_project/Conv2D_bn_offset", "op": "Const", "attr": {"dtype": {"type": "DT_FLOAT"}, "value": {"tensor": {"dtype": "DT_FLOAT", "tensorShape": {"dim": [{"size": "64"}]}}}}}, {"name": "StatefulPartitionedCall/ssd_mobile_net_v2_fpn_keras_feature_extractor/model/block_8_expand/Conv2D_weights", "op": "Const", "attr": {"dtype": {"type": "DT_FLOAT"}, "value": {"tensor": {"dtype": "DT_FLOAT", "tensorShape": {"dim": [{"size": "1"}, {"size": "1"}, {"size": "64"}, {"size": "384"}]}}}}}, {"name": "StatefulPartitionedCall/ssd_mobile_net_v2_fpn_keras_feature_extractor/model/block_8_expand/Conv2D_bn_offset", "op": "Const", "attr": {"dtype": {"type": "DT_FLOAT"}, "value": {"tensor": {"dtype": "DT_FLOAT", "tensorShape": {"dim": [{"size": "384"}]}}}}}, {"name": "StatefulPartitionedCall/ssd_mobile_net_v2_fpn_keras_feature_extractor/model/block_8_depthwise/depthwise_weights", "op": "Const", "attr": {"value": {"tensor": {"dtype": "DT_FLOAT", "tensorShape": {"dim": [{"size": "3"}, {"size": "3"}, {"size": "384"}, {"size": "1"}]}}}, "dtype": {"type": "DT_FLOAT"}}}, {"name": "StatefulPartitionedCall/ssd_mobile_net_v2_fpn_keras_feature_extractor/model/block_8_depthwise/depthwise_bn_offset", "op": "Const", "attr": {"value": {"tensor": {"dtype": "DT_FLOAT", "tensorShape": {"dim": [{"size": "384"}]}}}, "dtype": {"type": "DT_FLOAT"}}}, {"name": "StatefulPartitionedCall/ssd_mobile_net_v2_fpn_keras_feature_extractor/model/block_8_project/Conv2D_weights", "op": "Const", "attr": {"value": {"tensor": {"dtype": "DT_FLOAT", "tensorShape": {"dim": [{"size": "1"}, {"size": "1"}, {"size": "384"}, {"size": "64"}]}}}, "dtype": {"type": "DT_FLOAT"}}}, {"name": "StatefulPartitionedCall/ssd_mobile_net_v2_fpn_keras_feature_extractor/model/block_8_project/Conv2D_bn_offset", "op": "Const", "attr": {"value": {"tensor": {"dtype": "DT_FLOAT", "tensorShape": {"dim": [{"size": "64"}]}}}, "dtype": {"type": "DT_FLOAT"}}}, {"name": "StatefulPartitionedCall/ssd_mobile_net_v2_fpn_keras_feature_extractor/model/block_9_expand/Conv2D_weights", "op": "Const", "attr": {"value": {"tensor": {"dtype": "DT_FLOAT", "tensorShape": {"dim": [{"size": "1"}, {"size": "1"}, {"size": "64"}, {"size": "384"}]}}}, "dtype": {"type": "DT_FLOAT"}}}, {"name": "StatefulPartitionedCall/ssd_mobile_net_v2_fpn_keras_feature_extractor/model/block_9_expand/Conv2D_bn_offset", "op": "Const", "attr": {"dtype": {"type": "DT_FLOAT"}, "value": {"tensor": {"dtype": "DT_FLOAT", "tensorShape": {"dim": [{"size": "384"}]}}}}}, {"name": "StatefulPartitionedCall/ssd_mobile_net_v2_fpn_keras_feature_extractor/model/block_9_depthwise/depthwise_weights", "op": "Const", "attr": {"dtype": {"type": "DT_FLOAT"}, "value": {"tensor": {"dtype": "DT_FLOAT", "tensorShape": {"dim": [{"size": "3"}, {"size": "3"}, {"size": "384"}, {"size": "1"}]}}}}}, {"name": "StatefulPartitionedCall/ssd_mobile_net_v2_fpn_keras_feature_extractor/model/block_9_depthwise/depthwise_bn_offset", "op": "Const", "attr": {"value": {"tensor": {"dtype": "DT_FLOAT", "tensorShape": {"dim": [{"size": "384"}]}}}, "dtype": {"type": "DT_FLOAT"}}}, {"name": "StatefulPartitionedCall/ssd_mobile_net_v2_fpn_keras_feature_extractor/model/block_9_project/Conv2D_weights", "op": "Const", "attr": {"value": {"tensor": {"dtype": "DT_FLOAT", "tensorShape": {"dim": [{"size": "1"}, {"size": "1"}, {"size": "384"}, {"size": "64"}]}}}, "dtype": {"type": "DT_FLOAT"}}}, {"name": "StatefulPartitionedCall/ssd_mobile_net_v2_fpn_keras_feature_extractor/model/block_9_project/Conv2D_bn_offset", "op": "Const", "attr": {"value": {"tensor": {"dtype": "DT_FLOAT", "tensorShape": {"dim": [{"size": "64"}]}}}, "dtype": {"type": "DT_FLOAT"}}}, {"name": "StatefulPartitionedCall/ssd_mobile_net_v2_fpn_keras_feature_extractor/model/block_10_expand/Conv2D_weights", "op": "Const", "attr": {"dtype": {"type": "DT_FLOAT"}, "value": {"tensor": {"dtype": "DT_FLOAT", "tensorShape": {"dim": [{"size": "1"}, {"size": "1"}, {"size": "64"}, {"size": "384"}]}}}}}, {"name": "StatefulPartitionedCall/ssd_mobile_net_v2_fpn_keras_feature_extractor/model/block_10_expand/Conv2D_bn_offset", "op": "Const", "attr": {"value": {"tensor": {"dtype": "DT_FLOAT", "tensorShape": {"dim": [{"size": "384"}]}}}, "dtype": {"type": "DT_FLOAT"}}}, {"name": "StatefulPartitionedCall/ssd_mobile_net_v2_fpn_keras_feature_extractor/model/block_10_depthwise/depthwise_weights", "op": "Const", "attr": {"dtype": {"type": "DT_FLOAT"}, "value": {"tensor": {"dtype": "DT_FLOAT", "tensorShape": {"dim": [{"size": "3"}, {"size": "3"}, {"size": "384"}, {"size": "1"}]}}}}}, {"name": "StatefulPartitionedCall/ssd_mobile_net_v2_fpn_keras_feature_extractor/model/block_10_depthwise/depthwise_bn_offset", "op": "Const", "attr": {"value": {"tensor": {"dtype": "DT_FLOAT", "tensorShape": {"dim": [{"size": "384"}]}}}, "dtype": {"type": "DT_FLOAT"}}}, {"name": "StatefulPartitionedCall/ssd_mobile_net_v2_fpn_keras_feature_extractor/model/block_10_project/Conv2D_weights", "op": "Const", "attr": {"dtype": {"type": "DT_FLOAT"}, "value": {"tensor": {"dtype": "DT_FLOAT", "tensorShape": {"dim": [{"size": "1"}, {"size": "1"}, {"size": "384"}, {"size": "96"}]}}}}}, {"name": "StatefulPartitionedCall/ssd_mobile_net_v2_fpn_keras_feature_extractor/model/block_10_project/Conv2D_bn_offset", "op": "Const", "attr": {"value": {"tensor": {"dtype": "DT_FLOAT", "tensorShape": {"dim": [{"size": "96"}]}}}, "dtype": {"type": "DT_FLOAT"}}}, {"name": "StatefulPartitionedCall/ssd_mobile_net_v2_fpn_keras_feature_extractor/model/block_11_expand/Conv2D_weights", "op": "Const", "attr": {"dtype": {"type": "DT_FLOAT"}, "value": {"tensor": {"dtype": "DT_FLOAT", "tensorShape": {"dim": [{"size": "1"}, {"size": "1"}, {"size": "96"}, {"size": "576"}]}}}}}, {"name": "StatefulPartitionedCall/ssd_mobile_net_v2_fpn_keras_feature_extractor/model/block_11_expand/Conv2D_bn_offset", "op": "Const", "attr": {"dtype": {"type": "DT_FLOAT"}, "value": {"tensor": {"dtype": "DT_FLOAT", "tensorShape": {"dim": [{"size": "576"}]}}}}}, {"name": "StatefulPartitionedCall/ssd_mobile_net_v2_fpn_keras_feature_extractor/model/block_11_depthwise/depthwise_weights", "op": "Const", "attr": {"value": {"tensor": {"dtype": "DT_FLOAT", "tensorShape": {"dim": [{"size": "3"}, {"size": "3"}, {"size": "576"}, {"size": "1"}]}}}, "dtype": {"type": "DT_FLOAT"}}}, {"name": "StatefulPartitionedCall/ssd_mobile_net_v2_fpn_keras_feature_extractor/model/block_11_depthwise/depthwise_bn_offset", "op": "Const", "attr": {"dtype": {"type": "DT_FLOAT"}, "value": {"tensor": {"dtype": "DT_FLOAT", "tensorShape": {"dim": [{"size": "576"}]}}}}}, {"name": "StatefulPartitionedCall/ssd_mobile_net_v2_fpn_keras_feature_extractor/model/block_11_project/Conv2D_weights", "op": "Const", "attr": {"dtype": {"type": "DT_FLOAT"}, "value": {"tensor": {"dtype": "DT_FLOAT", "tensorShape": {"dim": [{"size": "1"}, {"size": "1"}, {"size": "576"}, {"size": "96"}]}}}}}, {"name": "StatefulPartitionedCall/ssd_mobile_net_v2_fpn_keras_feature_extractor/model/block_11_project/Conv2D_bn_offset", "op": "Const", "attr": {"value": {"tensor": {"dtype": "DT_FLOAT", "tensorShape": {"dim": [{"size": "96"}]}}}, "dtype": {"type": "DT_FLOAT"}}}, {"name": "StatefulPartitionedCall/ssd_mobile_net_v2_fpn_keras_feature_extractor/model/block_12_expand/Conv2D_weights", "op": "Const", "attr": {"dtype": {"type": "DT_FLOAT"}, "value": {"tensor": {"dtype": "DT_FLOAT", "tensorShape": {"dim": [{"size": "1"}, {"size": "1"}, {"size": "96"}, {"size": "576"}]}}}}}, {"name": "StatefulPartitionedCall/ssd_mobile_net_v2_fpn_keras_feature_extractor/model/block_12_expand/Conv2D_bn_offset", "op": "Const", "attr": {"value": {"tensor": {"dtype": "DT_FLOAT", "tensorShape": {"dim": [{"size": "576"}]}}}, "dtype": {"type": "DT_FLOAT"}}}, {"name": "StatefulPartitionedCall/ssd_mobile_net_v2_fpn_keras_feature_extractor/model/block_12_depthwise/depthwise_weights", "op": "Const", "attr": {"dtype": {"type": "DT_FLOAT"}, "value": {"tensor": {"dtype": "DT_FLOAT", "tensorShape": {"dim": [{"size": "3"}, {"size": "3"}, {"size": "576"}, {"size": "1"}]}}}}}, {"name": "StatefulPartitionedCall/ssd_mobile_net_v2_fpn_keras_feature_extractor/model/block_12_depthwise/depthwise_bn_offset", "op": "Const", "attr": {"value": {"tensor": {"dtype": "DT_FLOAT", "tensorShape": {"dim": [{"size": "576"}]}}}, "dtype": {"type": "DT_FLOAT"}}}, {"name": "StatefulPartitionedCall/ssd_mobile_net_v2_fpn_keras_feature_extractor/model/block_12_project/Conv2D_weights", "op": "Const", "attr": {"value": {"tensor": {"dtype": "DT_FLOAT", "tensorShape": {"dim": [{"size": "1"}, {"size": "1"}, {"size": "576"}, {"size": "96"}]}}}, "dtype": {"type": "DT_FLOAT"}}}, {"name": "StatefulPartitionedCall/ssd_mobile_net_v2_fpn_keras_feature_extractor/model/block_12_project/Conv2D_bn_offset", "op": "Const", "attr": {"value": {"tensor": {"dtype": "DT_FLOAT", "tensorShape": {"dim": [{"size": "96"}]}}}, "dtype": {"type": "DT_FLOAT"}}}, {"name": "StatefulPartitionedCall/ssd_mobile_net_v2_fpn_keras_feature_extractor/model/block_13_expand/Conv2D_weights", "op": "Const", "attr": {"dtype": {"type": "DT_FLOAT"}, "value": {"tensor": {"dtype": "DT_FLOAT", "tensorShape": {"dim": [{"size": "1"}, {"size": "1"}, {"size": "96"}, {"size": "576"}]}}}}}, {"name": "StatefulPartitionedCall/ssd_mobile_net_v2_fpn_keras_feature_extractor/model/block_13_expand/Conv2D_bn_offset", "op": "Const", "attr": {"dtype": {"type": "DT_FLOAT"}, "value": {"tensor": {"dtype": "DT_FLOAT", "tensorShape": {"dim": [{"size": "576"}]}}}}}, {"name": "StatefulPartitionedCall/ssd_mobile_net_v2_fpn_keras_feature_extractor/model/block_13_depthwise/depthwise_weights", "op": "Const", "attr": {"dtype": {"type": "DT_FLOAT"}, "value": {"tensor": {"dtype": "DT_FLOAT", "tensorShape": {"dim": [{"size": "3"}, {"size": "3"}, {"size": "576"}, {"size": "1"}]}}}}}, {"name": "StatefulPartitionedCall/ssd_mobile_net_v2_fpn_keras_feature_extractor/model/block_13_depthwise/depthwise_bn_offset", "op": "Const", "attr": {"value": {"tensor": {"dtype": "DT_FLOAT", "tensorShape": {"dim": [{"size": "576"}]}}}, "dtype": {"type": "DT_FLOAT"}}}, {"name": "StatefulPartitionedCall/ssd_mobile_net_v2_fpn_keras_feature_extractor/model/block_13_project/Conv2D_weights", "op": "Const", "attr": {"dtype": {"type": "DT_FLOAT"}, "value": {"tensor": {"dtype": "DT_FLOAT", "tensorShape": {"dim": [{"size": "1"}, {"size": "1"}, {"size": "576"}, {"size": "160"}]}}}}}, {"name": "StatefulPartitionedCall/ssd_mobile_net_v2_fpn_keras_feature_extractor/model/block_13_project/Conv2D_bn_offset", "op": "Const", "attr": {"value": {"tensor": {"dtype": "DT_FLOAT", "tensorShape": {"dim": [{"size": "160"}]}}}, "dtype": {"type": "DT_FLOAT"}}}, {"name": "StatefulPartitionedCall/ssd_mobile_net_v2_fpn_keras_feature_extractor/model/block_14_expand/Conv2D_weights", "op": "Const", "attr": {"value": {"tensor": {"dtype": "DT_FLOAT", "tensorShape": {"dim": [{"size": "1"}, {"size": "1"}, {"size": "160"}, {"size": "960"}]}}}, "dtype": {"type": "DT_FLOAT"}}}, {"name": "StatefulPartitionedCall/ssd_mobile_net_v2_fpn_keras_feature_extractor/model/block_14_expand/Conv2D_bn_offset", "op": "Const", "attr": {"value": {"tensor": {"dtype": "DT_FLOAT", "tensorShape": {"dim": [{"size": "960"}]}}}, "dtype": {"type": "DT_FLOAT"}}}, {"name": "StatefulPartitionedCall/ssd_mobile_net_v2_fpn_keras_feature_extractor/model/block_14_depthwise/depthwise_weights", "op": "Const", "attr": {"value": {"tensor": {"dtype": "DT_FLOAT", "tensorShape": {"dim": [{"size": "3"}, {"size": "3"}, {"size": "960"}, {"size": "1"}]}}}, "dtype": {"type": "DT_FLOAT"}}}, {"name": "StatefulPartitionedCall/ssd_mobile_net_v2_fpn_keras_feature_extractor/model/block_14_depthwise/depthwise_bn_offset", "op": "Const", "attr": {"dtype": {"type": "DT_FLOAT"}, "value": {"tensor": {"dtype": "DT_FLOAT", "tensorShape": {"dim": [{"size": "960"}]}}}}}, {"name": "StatefulPartitionedCall/ssd_mobile_net_v2_fpn_keras_feature_extractor/model/block_14_project/Conv2D_weights", "op": "Const", "attr": {"dtype": {"type": "DT_FLOAT"}, "value": {"tensor": {"dtype": "DT_FLOAT", "tensorShape": {"dim": [{"size": "1"}, {"size": "1"}, {"size": "960"}, {"size": "160"}]}}}}}, {"name": "StatefulPartitionedCall/ssd_mobile_net_v2_fpn_keras_feature_extractor/model/block_14_project/Conv2D_bn_offset", "op": "Const", "attr": {"dtype": {"type": "DT_FLOAT"}, "value": {"tensor": {"dtype": "DT_FLOAT", "tensorShape": {"dim": [{"size": "160"}]}}}}}, {"name": "StatefulPartitionedCall/ssd_mobile_net_v2_fpn_keras_feature_extractor/model/block_15_expand/Conv2D_weights", "op": "Const", "attr": {"dtype": {"type": "DT_FLOAT"}, "value": {"tensor": {"dtype": "DT_FLOAT", "tensorShape": {"dim": [{"size": "1"}, {"size": "1"}, {"size": "160"}, {"size": "960"}]}}}}}, {"name": "StatefulPartitionedCall/ssd_mobile_net_v2_fpn_keras_feature_extractor/model/block_15_expand/Conv2D_bn_offset", "op": "Const", "attr": {"value": {"tensor": {"dtype": "DT_FLOAT", "tensorShape": {"dim": [{"size": "960"}]}}}, "dtype": {"type": "DT_FLOAT"}}}, {"name": "StatefulPartitionedCall/ssd_mobile_net_v2_fpn_keras_feature_extractor/model/block_15_depthwise/depthwise_weights", "op": "Const", "attr": {"value": {"tensor": {"dtype": "DT_FLOAT", "tensorShape": {"dim": [{"size": "3"}, {"size": "3"}, {"size": "960"}, {"size": "1"}]}}}, "dtype": {"type": "DT_FLOAT"}}}, {"name": "StatefulPartitionedCall/ssd_mobile_net_v2_fpn_keras_feature_extractor/model/block_15_depthwise/depthwise_bn_offset", "op": "Const", "attr": {"dtype": {"type": "DT_FLOAT"}, "value": {"tensor": {"dtype": "DT_FLOAT", "tensorShape": {"dim": [{"size": "960"}]}}}}}, {"name": "StatefulPartitionedCall/ssd_mobile_net_v2_fpn_keras_feature_extractor/model/block_15_project/Conv2D_weights", "op": "Const", "attr": {"value": {"tensor": {"dtype": "DT_FLOAT", "tensorShape": {"dim": [{"size": "1"}, {"size": "1"}, {"size": "960"}, {"size": "160"}]}}}, "dtype": {"type": "DT_FLOAT"}}}, {"name": "StatefulPartitionedCall/ssd_mobile_net_v2_fpn_keras_feature_extractor/model/block_15_project/Conv2D_bn_offset", "op": "Const", "attr": {"value": {"tensor": {"dtype": "DT_FLOAT", "tensorShape": {"dim": [{"size": "160"}]}}}, "dtype": {"type": "DT_FLOAT"}}}, {"name": "StatefulPartitionedCall/ssd_mobile_net_v2_fpn_keras_feature_extractor/model/block_16_expand/Conv2D_weights", "op": "Const", "attr": {"dtype": {"type": "DT_FLOAT"}, "value": {"tensor": {"dtype": "DT_FLOAT", "tensorShape": {"dim": [{"size": "1"}, {"size": "1"}, {"size": "160"}, {"size": "960"}]}}}}}, {"name": "StatefulPartitionedCall/ssd_mobile_net_v2_fpn_keras_feature_extractor/model/block_16_expand/Conv2D_bn_offset", "op": "Const", "attr": {"dtype": {"type": "DT_FLOAT"}, "value": {"tensor": {"dtype": "DT_FLOAT", "tensorShape": {"dim": [{"size": "960"}]}}}}}, {"name": "StatefulPartitionedCall/ssd_mobile_net_v2_fpn_keras_feature_extractor/model/block_16_depthwise/depthwise_weights", "op": "Const", "attr": {"dtype": {"type": "DT_FLOAT"}, "value": {"tensor": {"dtype": "DT_FLOAT", "tensorShape": {"dim": [{"size": "3"}, {"size": "3"}, {"size": "960"}, {"size": "1"}]}}}}}, {"name": "StatefulPartitionedCall/ssd_mobile_net_v2_fpn_keras_feature_extractor/model/block_16_depthwise/depthwise_bn_offset", "op": "Const", "attr": {"dtype": {"type": "DT_FLOAT"}, "value": {"tensor": {"dtype": "DT_FLOAT", "tensorShape": {"dim": [{"size": "960"}]}}}}}, {"name": "StatefulPartitionedCall/ssd_mobile_net_v2_fpn_keras_feature_extractor/model/block_16_project/Conv2D_weights", "op": "Const", "attr": {"value": {"tensor": {"dtype": "DT_FLOAT", "tensorShape": {"dim": [{"size": "1"}, {"size": "1"}, {"size": "960"}, {"size": "320"}]}}}, "dtype": {"type": "DT_FLOAT"}}}, {"name": "StatefulPartitionedCall/ssd_mobile_net_v2_fpn_keras_feature_extractor/model/block_16_project/Conv2D_bn_offset", "op": "Const", "attr": {"dtype": {"type": "DT_FLOAT"}, "value": {"tensor": {"dtype": "DT_FLOAT", "tensorShape": {"dim": [{"size": "320"}]}}}}}, {"name": "StatefulPartitionedCall/ssd_mobile_net_v2_fpn_keras_feature_extractor/model/Conv_1/Conv2D_weights", "op": "Const", "attr": {"value": {"tensor": {"dtype": "DT_FLOAT", "tensorShape": {"dim": [{"size": "1"}, {"size": "1"}, {"size": "320"}, {"size": "1280"}]}}}, "dtype": {"type": "DT_FLOAT"}}}, {"name": "StatefulPartitionedCall/ssd_mobile_net_v2_fpn_keras_feature_extractor/model/Conv_1/Conv2D_bn_offset", "op": "Const", "attr": {"dtype": {"type": "DT_FLOAT"}, "value": {"tensor": {"dtype": "DT_FLOAT", "tensorShape": {"dim": [{"size": "1280"}]}}}}}, {"name": "StatefulPartitionedCall/WeightSharedConvolutionalBoxPredictor/PredictionTower/conv2d_0/separable_conv2d_2_weights", "op": "Const", "attr": {"value": {"tensor": {"dtype": "DT_FLOAT", "tensorShape": {"dim": [{"size": "1"}, {"size": "1"}, {"size": "128"}, {"size": "128"}]}}}, "dtype": {"type": "DT_FLOAT"}}}, {"name": "StatefulPartitionedCall/WeightSharedConvolutionalBoxPredictor/PredictionTower/conv2d_0/separable_conv2d_2_bn_offset", "op": "Const", "attr": {"value": {"tensor": {"dtype": "DT_FLOAT", "tensorShape": {"dim": [{"size": "128"}]}}}, "dtype": {"type": "DT_FLOAT"}}}, {"name": "StatefulPartitionedCall/ssd_mobile_net_v2_fpn_keras_feature_extractor/bottom_up_Conv2d_20_depthwise_conv/separable_conv2d_weights", "op": "Const", "attr": {"dtype": {"type": "DT_FLOAT"}, "value": {"tensor": {"dtype": "DT_FLOAT", "tensorShape": {"dim": [{"size": "1"}, {"size": "1"}, {"size": "128"}, {"size": "128"}]}}}}}, {"name": "StatefulPartitionedCall/ssd_mobile_net_v2_fpn_keras_feature_extractor/bottom_up_Conv2d_20_depthwise_conv/separable_conv2d_bn_offset", "op": "Const", "attr": {"dtype": {"type": "DT_FLOAT"}, "value": {"tensor": {"dtype": "DT_FLOAT", "tensorShape": {"dim": [{"size": "128"}]}}}}}, {"name": "StatefulPartitionedCall/WeightSharedConvolutionalBoxPredictor/PredictionTower/conv2d_1/separable_conv2d_2_weights", "op": "Const", "attr": {"value": {"tensor": {"dtype": "DT_FLOAT", "tensorShape": {"dim": [{"size": "1"}, {"size": "1"}, {"size": "128"}, {"size": "128"}]}}}, "dtype": {"type": "DT_FLOAT"}}}, {"name": "StatefulPartitionedCall/WeightSharedConvolutionalBoxPredictor/PredictionTower/conv2d_1/separable_conv2d_2_bn_offset", "op": "Const", "attr": {"value": {"tensor": {"dtype": "DT_FLOAT", "tensorShape": {"dim": [{"size": "128"}]}}}, "dtype": {"type": "DT_FLOAT"}}}, {"name": "StatefulPartitionedCall/WeightSharedConvolutionalBoxPredictor/PredictionTower/conv2d_0/separable_conv2d_3_weights", "op": "Const", "attr": {"dtype": {"type": "DT_FLOAT"}, "value": {"tensor": {"dtype": "DT_FLOAT", "tensorShape": {"dim": [{"size": "1"}, {"size": "1"}, {"size": "128"}, {"size": "128"}]}}}}}, {"name": "StatefulPartitionedCall/WeightSharedConvolutionalBoxPredictor/PredictionTower/conv2d_0/separable_conv2d_3_bn_offset", "op": "Const", "attr": {"value": {"tensor": {"dtype": "DT_FLOAT", "tensorShape": {"dim": [{"size": "128"}]}}}, "dtype": {"type": "DT_FLOAT"}}}, {"name": "StatefulPartitionedCall/ssd_mobile_net_v2_fpn_keras_feature_extractor/bottom_up_Conv2d_21_depthwise_conv/separable_conv2d_weights", "op": "Const", "attr": {"value": {"tensor": {"dtype": "DT_FLOAT", "tensorShape": {"dim": [{"size": "1"}, {"size": "1"}, {"size": "128"}, {"size": "128"}]}}}, "dtype": {"type": "DT_FLOAT"}}}, {"name": "StatefulPartitionedCall/ssd_mobile_net_v2_fpn_keras_feature_extractor/bottom_up_Conv2d_21_depthwise_conv/separable_conv2d_bn_offset", "op": "Const", "attr": {"dtype": {"type": "DT_FLOAT"}, "value": {"tensor": {"dtype": "DT_FLOAT", "tensorShape": {"dim": [{"size": "128"}]}}}}}, {"name": "StatefulPartitionedCall/ssd_mobile_net_v2_fpn_keras_feature_extractor/FeatureMaps/top_down/smoothing_2_depthwise_conv/separable_conv2d_weights", "op": "Const", "attr": {"value": {"tensor": {"dtype": "DT_FLOAT", "tensorShape": {"dim": [{"size": "1"}, {"size": "1"}, {"size": "128"}, {"size": "128"}]}}}, "dtype": {"type": "DT_FLOAT"}}}, {"name": "StatefulPartitionedCall/ssd_mobile_net_v2_fpn_keras_feature_extractor/FeatureMaps/top_down/smoothing_2_depthwise_conv/separable_conv2d_bn_offset", "op": "Const", "attr": {"value": {"tensor": {"dtype": "DT_FLOAT", "tensorShape": {"dim": [{"size": "128"}]}}}, "dtype": {"type": "DT_FLOAT"}}}, {"name": "StatefulPartitionedCall/WeightSharedConvolutionalBoxPredictor/PredictionTower/conv2d_2/separable_conv2d_2_weights", "op": "Const", "attr": {"dtype": {"type": "DT_FLOAT"}, "value": {"tensor": {"dtype": "DT_FLOAT", "tensorShape": {"dim": [{"size": "1"}, {"size": "1"}, {"size": "128"}, {"size": "128"}]}}}}}, {"name": "StatefulPartitionedCall/WeightSharedConvolutionalBoxPredictor/PredictionTower/conv2d_2/separable_conv2d_2_bn_offset", "op": "Const", "attr": {"value": {"tensor": {"dtype": "DT_FLOAT", "tensorShape": {"dim": [{"size": "128"}]}}}, "dtype": {"type": "DT_FLOAT"}}}, {"name": "StatefulPartitionedCall/WeightSharedConvolutionalBoxPredictor/PredictionTower/conv2d_1/separable_conv2d_3_weights", "op": "Const", "attr": {"value": {"tensor": {"dtype": "DT_FLOAT", "tensorShape": {"dim": [{"size": "1"}, {"size": "1"}, {"size": "128"}, {"size": "128"}]}}}, "dtype": {"type": "DT_FLOAT"}}}, {"name": "StatefulPartitionedCall/WeightSharedConvolutionalBoxPredictor/PredictionTower/conv2d_1/separable_conv2d_3_bn_offset", "op": "Const", "attr": {"value": {"tensor": {"dtype": "DT_FLOAT", "tensorShape": {"dim": [{"size": "128"}]}}}, "dtype": {"type": "DT_FLOAT"}}}, {"name": "StatefulPartitionedCall/WeightSharedConvolutionalBoxPredictor/PredictionTower/conv2d_0/separable_conv2d_4_weights", "op": "Const", "attr": {"value": {"tensor": {"dtype": "DT_FLOAT", "tensorShape": {"dim": [{"size": "1"}, {"size": "1"}, {"size": "128"}, {"size": "128"}]}}}, "dtype": {"type": "DT_FLOAT"}}}, {"name": "StatefulPartitionedCall/WeightSharedConvolutionalBoxPredictor/PredictionTower/conv2d_0/separable_conv2d_4_bn_offset", "op": "Const", "attr": {"value": {"tensor": {"dtype": "DT_FLOAT", "tensorShape": {"dim": [{"size": "128"}]}}}, "dtype": {"type": "DT_FLOAT"}}}, {"name": "StatefulPartitionedCall/WeightSharedConvolutionalBoxPredictor/PredictionTower/conv2d_0/separable_conv2d_1_weights", "op": "Const", "attr": {"dtype": {"type": "DT_FLOAT"}, "value": {"tensor": {"dtype": "DT_FLOAT", "tensorShape": {"dim": [{"size": "1"}, {"size": "1"}, {"size": "128"}, {"size": "128"}]}}}}}, {"name": "StatefulPartitionedCall/WeightSharedConvolutionalBoxPredictor/PredictionTower/conv2d_0/separable_conv2d_1_bn_offset", "op": "Const", "attr": {"dtype": {"type": "DT_FLOAT"}, "value": {"tensor": {"dtype": "DT_FLOAT", "tensorShape": {"dim": [{"size": "128"}]}}}}}, {"name": "StatefulPartitionedCall/WeightSharedConvolutionalBoxPredictor/PredictionTower/conv2d_3/separable_conv2d_2_weights", "op": "Const", "attr": {"value": {"tensor": {"dtype": "DT_FLOAT", "tensorShape": {"dim": [{"size": "1"}, {"size": "1"}, {"size": "128"}, {"size": "128"}]}}}, "dtype": {"type": "DT_FLOAT"}}}, {"name": "StatefulPartitionedCall/WeightSharedConvolutionalBoxPredictor/PredictionTower/conv2d_3/separable_conv2d_2_bn_offset", "op": "Const", "attr": {"dtype": {"type": "DT_FLOAT"}, "value": {"tensor": {"dtype": "DT_FLOAT", "tensorShape": {"dim": [{"size": "128"}]}}}}}, {"name": "StatefulPartitionedCall/WeightSharedConvolutionalBoxPredictor/PredictionTower/conv2d_2/separable_conv2d_3_weights", "op": "Const", "attr": {"value": {"tensor": {"dtype": "DT_FLOAT", "tensorShape": {"dim": [{"size": "1"}, {"size": "1"}, {"size": "128"}, {"size": "128"}]}}}, "dtype": {"type": "DT_FLOAT"}}}, {"name": "StatefulPartitionedCall/WeightSharedConvolutionalBoxPredictor/PredictionTower/conv2d_2/separable_conv2d_3_bn_offset", "op": "Const", "attr": {"value": {"tensor": {"dtype": "DT_FLOAT", "tensorShape": {"dim": [{"size": "128"}]}}}, "dtype": {"type": "DT_FLOAT"}}}, {"name": "StatefulPartitionedCall/WeightSharedConvolutionalBoxPredictor/PredictionTower/conv2d_1/separable_conv2d_4_weights", "op": "Const", "attr": {"value": {"tensor": {"dtype": "DT_FLOAT", "tensorShape": {"dim": [{"size": "1"}, {"size": "1"}, {"size": "128"}, {"size": "128"}]}}}, "dtype": {"type": "DT_FLOAT"}}}, {"name": "StatefulPartitionedCall/WeightSharedConvolutionalBoxPredictor/PredictionTower/conv2d_1/separable_conv2d_4_bn_offset", "op": "Const", "attr": {"value": {"tensor": {"dtype": "DT_FLOAT", "tensorShape": {"dim": [{"size": "128"}]}}}, "dtype": {"type": "DT_FLOAT"}}}, {"name": "StatefulPartitionedCall/WeightSharedConvolutionalBoxPredictor/PredictionTower/conv2d_1/separable_conv2d_1_weights", "op": "Const", "attr": {"dtype": {"type": "DT_FLOAT"}, "value": {"tensor": {"dtype": "DT_FLOAT", "tensorShape": {"dim": [{"size": "1"}, {"size": "1"}, {"size": "128"}, {"size": "128"}]}}}}}, {"name": "StatefulPartitionedCall/WeightSharedConvolutionalBoxPredictor/PredictionTower/conv2d_1/separable_conv2d_1_bn_offset", "op": "Const", "attr": {"value": {"tensor": {"dtype": "DT_FLOAT", "tensorShape": {"dim": [{"size": "128"}]}}}, "dtype": {"type": "DT_FLOAT"}}}, {"name": "StatefulPartitionedCall/WeightSharedConvolutionalBoxPredictor/PredictionTower/conv2d_3/separable_conv2d_3_weights", "op": "Const", "attr": {"value": {"tensor": {"dtype": "DT_FLOAT", "tensorShape": {"dim": [{"size": "1"}, {"size": "1"}, {"size": "128"}, {"size": "128"}]}}}, "dtype": {"type": "DT_FLOAT"}}}, {"name": "StatefulPartitionedCall/WeightSharedConvolutionalBoxPredictor/PredictionTower/conv2d_3/separable_conv2d_3_bn_offset", "op": "Const", "attr": {"value": {"tensor": {"dtype": "DT_FLOAT", "tensorShape": {"dim": [{"size": "128"}]}}}, "dtype": {"type": "DT_FLOAT"}}}, {"name": "StatefulPartitionedCall/WeightSharedConvolutionalBoxPredictor/PredictionTower/conv2d_2/separable_conv2d_4_weights", "op": "Const", "attr": {"value": {"tensor": {"dtype": "DT_FLOAT", "tensorShape": {"dim": [{"size": "1"}, {"size": "1"}, {"size": "128"}, {"size": "128"}]}}}, "dtype": {"type": "DT_FLOAT"}}}, {"name": "StatefulPartitionedCall/WeightSharedConvolutionalBoxPredictor/PredictionTower/conv2d_2/separable_conv2d_4_bn_offset", "op": "Const", "attr": {"dtype": {"type": "DT_FLOAT"}, "value": {"tensor": {"dtype": "DT_FLOAT", "tensorShape": {"dim": [{"size": "128"}]}}}}}, {"name": "StatefulPartitionedCall/ssd_mobile_net_v2_fpn_keras_feature_extractor/FeatureMaps/top_down/smoothing_1_depthwise_conv/separable_conv2d_weights", "op": "Const", "attr": {"value": {"tensor": {"dtype": "DT_FLOAT", "tensorShape": {"dim": [{"size": "1"}, {"size": "1"}, {"size": "128"}, {"size": "128"}]}}}, "dtype": {"type": "DT_FLOAT"}}}, {"name": "StatefulPartitionedCall/ssd_mobile_net_v2_fpn_keras_feature_extractor/FeatureMaps/top_down/smoothing_1_depthwise_conv/separable_conv2d_bn_offset", "op": "Const", "attr": {"value": {"tensor": {"dtype": "DT_FLOAT", "tensorShape": {"dim": [{"size": "128"}]}}}, "dtype": {"type": "DT_FLOAT"}}}, {"name": "StatefulPartitionedCall/WeightSharedConvolutionalBoxPredictor/PredictionTower/conv2d_2/separable_conv2d_1_weights", "op": "Const", "attr": {"value": {"tensor": {"dtype": "DT_FLOAT", "tensorShape": {"dim": [{"size": "1"}, {"size": "1"}, {"size": "128"}, {"size": "128"}]}}}, "dtype": {"type": "DT_FLOAT"}}}, {"name": "StatefulPartitionedCall/WeightSharedConvolutionalBoxPredictor/PredictionTower/conv2d_2/separable_conv2d_1_bn_offset", "op": "Const", "attr": {"value": {"tensor": {"dtype": "DT_FLOAT", "tensorShape": {"dim": [{"size": "128"}]}}}, "dtype": {"type": "DT_FLOAT"}}}, {"name": "StatefulPartitionedCall/WeightSharedConvolutionalBoxPredictor/PredictionTower/conv2d_3/separable_conv2d_4_weights", "op": "Const", "attr": {"value": {"tensor": {"dtype": "DT_FLOAT", "tensorShape": {"dim": [{"size": "1"}, {"size": "1"}, {"size": "128"}, {"size": "128"}]}}}, "dtype": {"type": "DT_FLOAT"}}}, {"name": "StatefulPartitionedCall/WeightSharedConvolutionalBoxPredictor/PredictionTower/conv2d_3/separable_conv2d_4_bn_offset", "op": "Const", "attr": {"value": {"tensor": {"dtype": "DT_FLOAT", "tensorShape": {"dim": [{"size": "128"}]}}}, "dtype": {"type": "DT_FLOAT"}}}, {"name": "StatefulPartitionedCall/WeightSharedConvolutionalBoxPredictor/PredictionTower/conv2d_0/separable_conv2d_weights", "op": "Const", "attr": {"dtype": {"type": "DT_FLOAT"}, "value": {"tensor": {"dtype": "DT_FLOAT", "tensorShape": {"dim": [{"size": "1"}, {"size": "1"}, {"size": "128"}, {"size": "128"}]}}}}}, {"name": "StatefulPartitionedCall/WeightSharedConvolutionalBoxPredictor/PredictionTower/conv2d_0/separable_conv2d_bn_offset", "op": "Const", "attr": {"dtype": {"type": "DT_FLOAT"}, "value": {"tensor": {"dtype": "DT_FLOAT", "tensorShape": {"dim": [{"size": "128"}]}}}}}, {"name": "StatefulPartitionedCall/WeightSharedConvolutionalBoxPredictor/PredictionTower/conv2d_3/separable_conv2d_1_weights", "op": "Const", "attr": {"dtype": {"type": "DT_FLOAT"}, "value": {"tensor": {"dtype": "DT_FLOAT", "tensorShape": {"dim": [{"size": "1"}, {"size": "1"}, {"size": "128"}, {"size": "128"}]}}}}}, {"name": "StatefulPartitionedCall/WeightSharedConvolutionalBoxPredictor/PredictionTower/conv2d_3/separable_conv2d_1_bn_offset", "op": "Const", "attr": {"value": {"tensor": {"dtype": "DT_FLOAT", "tensorShape": {"dim": [{"size": "128"}]}}}, "dtype": {"type": "DT_FLOAT"}}}, {"name": "StatefulPartitionedCall/WeightSharedConvolutionalBoxPredictor/PredictionTower/conv2d_1/separable_conv2d_weights", "op": "Const", "attr": {"value": {"tensor": {"dtype": "DT_FLOAT", "tensorShape": {"dim": [{"size": "1"}, {"size": "1"}, {"size": "128"}, {"size": "128"}]}}}, "dtype": {"type": "DT_FLOAT"}}}, {"name": "StatefulPartitionedCall/WeightSharedConvolutionalBoxPredictor/PredictionTower/conv2d_1/separable_conv2d_bn_offset", "op": "Const", "attr": {"dtype": {"type": "DT_FLOAT"}, "value": {"tensor": {"dtype": "DT_FLOAT", "tensorShape": {"dim": [{"size": "128"}]}}}}}, {"name": "StatefulPartitionedCall/WeightSharedConvolutionalBoxPredictor/PredictionTower/conv2d_2/separable_conv2d_weights", "op": "Const", "attr": {"value": {"tensor": {"dtype": "DT_FLOAT", "tensorShape": {"dim": [{"size": "1"}, {"size": "1"}, {"size": "128"}, {"size": "128"}]}}}, "dtype": {"type": "DT_FLOAT"}}}, {"name": "StatefulPartitionedCall/WeightSharedConvolutionalBoxPredictor/PredictionTower/conv2d_2/separable_conv2d_bn_offset", "op": "Const", "attr": {"dtype": {"type": "DT_FLOAT"}, "value": {"tensor": {"dtype": "DT_FLOAT", "tensorShape": {"dim": [{"size": "128"}]}}}}}, {"name": "StatefulPartitionedCall/WeightSharedConvolutionalBoxPredictor/PredictionTower/conv2d_3/separable_conv2d_weights", "op": "Const", "attr": {"dtype": {"type": "DT_FLOAT"}, "value": {"tensor": {"dtype": "DT_FLOAT", "tensorShape": {"dim": [{"size": "1"}, {"size": "1"}, {"size": "128"}, {"size": "128"}]}}}}}, {"name": "StatefulPartitionedCall/WeightSharedConvolutionalBoxPredictor/PredictionTower/conv2d_3/separable_conv2d_bn_offset", "op": "Const", "attr": {"dtype": {"type": "DT_FLOAT"}, "value": {"tensor": {"dtype": "DT_FLOAT", "tensorShape": {"dim": [{"size": "128"}]}}}}}, {"name": "StatefulPartitionedCall/map/TensorArrayV2_1", "op": "TensorListReserve", "input": ["StatefulPartitionedCall/map/TensorArrayV2_1/element_shape", "StatefulPartitionedCall/map/TensorArrayV2_1/num_elements"], "attr": {"shape_type": {"type": "DT_INT32"}, "element_dtype": {"type": "DT_FLOAT"}}, "experimentalType": {"typeId": "TFT_PRODUCT", "args": [{"typeId": "TFT_ARRAY", "args": [{"typeId": "TFT_TENSOR", "args": [{"typeId": "TFT_FLOAT"}]}]}]}}, {"name": "StatefulPartitionedCall/map/TensorArrayV2_2", "op": "TensorListReserve", "input": ["StatefulPartitionedCall/map/TensorArrayV2_2/element_shape", "StatefulPartitionedCall/map/TensorArrayV2_2/num_elements"], "attr": {"shape_type": {"type": "DT_INT32"}, "element_dtype": {"type": "DT_INT32"}}, "experimentalType": {"typeId": "TFT_PRODUCT", "args": [{"typeId": "TFT_ARRAY", "args": [{"typeId": "TFT_TENSOR", "args": [{"typeId": "TFT_INT32"}]}]}]}}, {"name": "StatefulPartitionedCall/map/TensorArrayUnstack/TensorListFromTensor", "op": "TensorListFromTensor", "input": ["input_tensor", "StatefulPartitionedCall/map/TensorArrayUnstack/TensorListFromTensor/element_shape"], "attr": {"element_dtype": {"type": "DT_UINT8"}, "shape_type": {"type": "DT_INT32"}}, "experimentalType": {"typeId": "TFT_PRODUCT", "args": [{"typeId": "TFT_ARRAY", "args": [{"typeId": "TFT_TENSOR", "args": [{"typeId": "TFT_UINT8"}]}]}]}}, {"name": "StatefulPartitionedCall/map/while", "op": "StatelessWhile", "input": ["StatefulPartitionedCall/map/while/loop_counter", "StatefulPartitionedCall/map/while/maximum_iterations", "StatefulPartitionedCall/map/Const", "StatefulPartitionedCall/map/TensorArrayV2_1", "StatefulPartitionedCall/map/TensorArrayV2_2", "StatefulPartitionedCall/map/TensorArrayUnstack/TensorListFromTensor"], "attr": {"_stateful_parallelism": {"b": false}, "output_shapes": {"list": {"shape": [{}, {}, {}, {}, {}, {}]}}, "body": {"func": {"name": "__inference_map_while_body_7865_4446"}}, "_lower_using_switch_merge": {"b": false}, "T": {"list": {"type": ["DT_INT32", "DT_INT32", "DT_INT32", "DT_VARIANT", "DT_VARIANT", "DT_VARIANT"]}}, "cond": {"func": {"name": "__inference_map_while_cond_7864_248"}}, "parallel_iterations": {"i": "32"}, "_read_only_resource_inputs": {"list": {}}, "_num_original_outputs": {"i": "6"}}}, {"name": "StatefulPartitionedCall/map/TensorArrayV2Stack/TensorListStack", "op": "TensorListStack", "input": ["StatefulPartitionedCall/map/while:3", "StatefulPartitionedCall/map/TensorArrayV2Stack/TensorListStack/element_shape"], "attr": {"num_elements": {"i": "1"}, "element_dtype": {"type": "DT_FLOAT"}}}, {"name": "StatefulPartitionedCall/map/TensorArrayV2Stack_1/TensorListStack", "op": "TensorListStack", "input": ["StatefulPartitionedCall/map/while:4", "StatefulPartitionedCall/map/TensorArrayV2Stack_1/TensorListStack/element_shape"], "attr": {"num_elements": {"i": "1"}, "element_dtype": {"type": "DT_INT32"}}}, {"name": "StatefulPartitionedCall/ssd_mobile_net_v2_fpn_keras_feature_extractor/model/Conv1_relu/Relu6", "op": "_FusedConv2D", "input": ["StatefulPartitionedCall/map/TensorArrayV2Stack/TensorListStack", "StatefulPartitionedCall/ssd_mobile_net_v2_fpn_keras_feature_extractor/model/Conv1/Conv2D_weights", "StatefulPartitionedCall/ssd_mobile_net_v2_fpn_keras_feature_extractor/model/Conv1/Conv2D_bn_offset"], "device": "/device:CPU:0", "attr": {"data_format": {"s": "TkhXQw=="}, "num_args": {"i": "1"}, "dilations": {"list": {"i": ["1", "1", "1", "1"]}}, "fused_ops": {"list": {"s": ["Qmlhc0FkZA==", "UmVsdTY="]}}, "use_cudnn_on_gpu": {"b": true}, "epsilon": {"f": 0.0}, "strides": {"list": {"i": ["1", "2", "2", "1"]}}, "T": {"type": "DT_FLOAT"}, "padding": {"s": "U0FNRQ=="}, "explicit_paddings": {"list": {}}}}, {"name": "StatefulPartitionedCall/Postprocessor/Cast_1", "op": "Cast", "input": ["StatefulPartitionedCall/map/TensorArrayV2Stack_1/TensorListStack"], "attr": {"DstT": {"type": "DT_FLOAT"}, "SrcT": {"type": "DT_INT32"}, "Truncate": {"b": false}}}, {"name": "StatefulPartitionedCall/ssd_mobile_net_v2_fpn_keras_feature_extractor/model/expanded_conv_depthwise/depthwise", "op": "FusedDepthwiseConv2dNative", "input": ["StatefulPartitionedCall/ssd_mobile_net_v2_fpn_keras_feature_extractor/model/Conv1_relu/Relu6", "StatefulPartitionedCall/ssd_mobile_net_v2_fpn_keras_feature_extractor/model/expanded_conv_depthwise/depthwise_weights", "StatefulPartitionedCall/ssd_mobile_net_v2_fpn_keras_feature_extractor/model/expanded_conv_depthwise/depthwise_bn_offset"], "attr": {"num_args": {"i": "1"}, "padding": {"s": "U0FNRQ=="}, "fused_ops": {"list": {"s": ["Qmlhc0FkZA==", "UmVsdTY="]}}, "data_format": {"s": "TkhXQw=="}, "strides": {"list": {"i": ["1", "1", "1", "1"]}}, "dilations": {"list": {"i": ["1", "1", "1", "1"]}}, "explicit_paddings": {"list": {}}, "T": {"type": "DT_FLOAT"}}}, {"name": "StatefulPartitionedCall/Postprocessor/unstack", "op": "Unpack", "input": ["StatefulPartitionedCall/Postprocessor/Cast_1"], "attr": {"num": {"i": "3"}, "T": {"type": "DT_FLOAT"}, "axis": {"i": "1"}}}, {"name": "StatefulPartitionedCall/Postprocessor/truediv", "op": "Mul", "input": ["StatefulPartitionedCall/Postprocessor/unstack", "ConstantFolding/StatefulPartitionedCall/Postprocessor/truediv_recip"], "attr": {"T": {"type": "DT_FLOAT"}}}, {"name": "StatefulPartitionedCall/Postprocessor/truediv_1", "op": "Mul", "input": ["StatefulPartitionedCall/Postprocessor/unstack:1", "ConstantFolding/StatefulPartitionedCall/Postprocessor/truediv_1_recip"], "attr": {"T": {"type": "DT_FLOAT"}}}, {"name": "StatefulPartitionedCall/Postprocessor/stack_1", "op": "Pack", "input": ["StatefulPartitionedCall/Postprocessor/zeros_like", "StatefulPartitionedCall/Postprocessor/zeros_like_1", "StatefulPartitionedCall/Postprocessor/truediv", "StatefulPartitionedCall/Postprocessor/truediv_1"], "attr": {"T": {"type": "DT_FLOAT"}, "axis": {"i": "1"}, "N": {"i": "4"}}}, {"name": "StatefulPartitionedCall/ssd_mobile_net_v2_fpn_keras_feature_extractor/model/expanded_conv_project_BN/FusedBatchNormV3", "op": "_FusedConv2D", "input": ["StatefulPartitionedCall/ssd_mobile_net_v2_fpn_keras_feature_extractor/model/expanded_conv_depthwise/depthwise", "StatefulPartitionedCall/ssd_mobile_net_v2_fpn_keras_feature_extractor/model/expanded_conv_project/Conv2D_weights", "StatefulPartitionedCall/ssd_mobile_net_v2_fpn_keras_feature_extractor/model/expanded_conv_project/Conv2D_bn_offset"], "device": "/device:CPU:0", "attr": {"padding": {"s": "U0FNRQ=="}, "use_cudnn_on_gpu": {"b": true}, "fused_ops": {"list": {"s": ["Qmlhc0FkZA=="]}}, "data_format": {"s": "TkhXQw=="}, "epsilon": {"f": 0.0}, "explicit_paddings": {"list": {}}, "num_args": {"i": "1"}, "strides": {"list": {"i": ["1", "1", "1", "1"]}}, "dilations": {"list": {"i": ["1", "1", "1", "1"]}}, "T": {"type": "DT_FLOAT"}}}, {"name": "StatefulPartitionedCall/Postprocessor/BatchMultiClassNonMaxSuppression/unstack_3", "op": "Unpack", "input": ["StatefulPartitionedCall/Postprocessor/stack_1"], "attr": {"axis": {"i": "0"}, "T": {"type": "DT_FLOAT"}, "num": {"i": "1"}}}, {"name": "StatefulPartitionedCall/ssd_mobile_net_v2_fpn_keras_feature_extractor/model/block_1_expand_relu/Relu6", "op": "_FusedConv2D", "input": ["StatefulPartitionedCall/ssd_mobile_net_v2_fpn_keras_feature_extractor/model/expanded_conv_project_BN/FusedBatchNormV3", "StatefulPartitionedCall/ssd_mobile_net_v2_fpn_keras_feature_extractor/model/block_1_expand/Conv2D_weights", "StatefulPartitionedCall/ssd_mobile_net_v2_fpn_keras_feature_extractor/model/block_1_expand/Conv2D_bn_offset"], "device": "/device:CPU:0", "attr": {"explicit_paddings": {"list": {}}, "fused_ops": {"list": {"s": ["Qmlhc0FkZA==", "UmVsdTY="]}}, "strides": {"list": {"i": ["1", "1", "1", "1"]}}, "padding": {"s": "U0FNRQ=="}, "dilations": {"list": {"i": ["1", "1", "1", "1"]}}, "use_cudnn_on_gpu": {"b": true}, "T": {"type": "DT_FLOAT"}, "data_format": {"s": "TkhXQw=="}, "epsilon": {"f": 0.0}, "num_args": {"i": "1"}}}, {"name": "StatefulPartitionedCall/Postprocessor/BatchMultiClassNonMaxSuppression/MultiClassNonMaxSuppression/ChangeCoordinateFrame/strided_slice", "op": "StridedSlice", "input": ["StatefulPartitionedCall/Postprocessor/BatchMultiClassNonMaxSuppression/unstack_3", "StatefulPartitionedCall/Postprocessor/BatchMultiClassNonMaxSuppression/MultiClassNonMaxSuppression/ChangeCoordinateFrame/strided_slice/stack", "StatefulPartitionedCall/Postprocessor/BatchMultiClassNonMaxSuppression/MultiClassNonMaxSuppression/ChangeCoordinateFrame/strided_slice/stack_1", "StatefulPartitionedCall/Po…
], "dtype": "int32"}, {"name": "StatefulPartitionedCall/Postprocessor/BatchMultiClassNonMaxSuppression/MultiClassNonMaxSuppression/strided_slice_7/stack", "shape": [1], "dtype": "int32"}, {"name": "StatefulPartitionedCall/Postprocessor/BatchMultiClassNonMaxSuppression/MultiClassNonMaxSuppression/strided_slice_7/stack_1", "shape": [1], "dtype": "int32"}, {"name": "StatefulPartitionedCall/Postprocessor/BatchMultiClassNonMaxSuppression/MultiClassNonMaxSuppression/strided_slice_7/stack_2", "shape": [1], "dtype": "int32"}, {"name": "StatefulPartitionedCall/Postprocessor/BatchMultiClassNonMaxSuppression/MultiClassNonMaxSuppression/ones_3/Reshape/shape", "shape": [1], "dtype": "int32"}, {"name": "StatefulPartitionedCall/Postprocessor/BatchMultiClassNonMaxSuppression/MultiClassNonMaxSuppression/ones_3/Const", "shape": [], "dtype": "float32", "quantization": {"dtype": "uint8", "min": 1.0, "scale": 1.0, "original_dtype": "float32"}}, {"name": "StatefulPartitionedCall/ssd_mobile_net_v2_fpn_keras_feature_extractor/model/Conv1/Conv2D_weights", "shape": [3, 3, 3, 32], "dtype": "float32", "quantization": {"dtype": "uint8", "min": -1.3531671972835766, "scale": 0.011276393310696471, "original_dtype": "float32"}}, {"name": "StatefulPartitionedCall/ssd_mobile_net_v2_fpn_keras_feature_extractor/model/Conv1/Conv2D_bn_offset", "shape": [32], "dtype": "float32", "quantization": {"dtype": "uint8", "min": -6.12940029256484, "scale": 0.048262994429644414, "original_dtype": "float32"}}, {"name": "StatefulPartitionedCall/ssd_mobile_net_v2_fpn_keras_feature_extractor/model/expanded_conv_depthwise/depthwise_weights", "shape": [3, 3, 32, 1], "dtype": "float32", "quantization": {"dtype": "uint8", "min": -13.091061162013634, "scale": 0.13091061162013634, "original_dtype": "float32"}}, {"name": "StatefulPartitionedCall/ssd_mobile_net_v2_fpn_keras_feature_extractor/model/expanded_conv_depthwise/depthwise_bn_offset", "shape": [32], "dtype": "float32", "quantization": {"dtype": "uint8", "min": -2.3893633618074306, "scale": 0.1257559664109174, "original_dtype": "float32"}}, {"name": "StatefulPartitionedCall/ssd_mobile_net_v2_fpn_keras_feature_extractor/model/expanded_conv_project/Conv2D_weights", "shape": [1, 1, 32, 16], "dtype": "float32", "quantization": {"dtype": "uint8", "min": -3.2827332272249112, "scale": 0.025447544397092334, "original_dtype": "float32"}}, {"name": "StatefulPartitionedCall/ssd_mobile_net_v2_fpn_keras_feature_extractor/model/expanded_conv_project/Conv2D_bn_offset", "shape": [16], "dtype": "float32", "quantization": {"dtype": "uint8", "min": -17.986240431841683, "scale": 0.15777403887580424, "original_dtype": "float32"}}, {"name": "StatefulPartitionedCall/ssd_mobile_net_v2_fpn_keras_feature_extractor/model/block_1_expand/Conv2D_weights", "shape": [1, 1, 16, 96], "dtype": "float32", "quantization": {"dtype": "uint8", "min": -0.6490316589673361, "scale": 0.007635666576086306, "original_dtype": "float32"}}, {"name": "StatefulPartitionedCall/ssd_mobile_net_v2_fpn_keras_feature_extractor/model/block_1_expand/Conv2D_bn_offset", "shape": [96], "dtype": "float32", "quantization": {"dtype": "uint8", "min": -1.7197636090072932, "scale": 0.019997251267526665, "original_dtype": "float32"}}, {"name": "StatefulPartitionedCall/ssd_mobile_net_v2_fpn_keras_feature_extractor/model/block_1_depthwise/depthwise_weights", "shape": [3, 3, 96, 1], "dtype": "float32", "quantization": {"dtype": "uint8", "min": -2.5937777210684385, "scale": 0.01979982993182014, "original_dtype": "float32"}}, {"name": "StatefulPartitionedCall/ssd_mobile_net_v2_fpn_keras_feature_extractor/model/block_1_depthwise/depthwise_bn_offset", "shape": [96], "dtype": "float32", "quantization": {"dtype": "uint8", "min": -12.596926823784324, "scale": 0.08342335644890281, "original_dtype": "float32"}}, {"name": "StatefulPartitionedCall/ssd_mobile_net_v2_fpn_keras_feature_extractor/model/block_1_project/Conv2D_weights", "shape": [1, 1, 96, 24], "dtype": "float32", "quantization": {"dtype": "uint8", "min": -2.259548018960392, "scale": 0.019820596657547297, "original_dtype": "float32"}}, {"name": "StatefulPartitionedCall/ssd_mobile_net_v2_fpn_keras_feature_extractor/model/block_1_project/Conv2D_bn_offset", "shape": [24], "dtype": "float32", "quantization": {"dtype": "uint8", "min": -12.901590792338054, "scale": 0.1084167293473786, "original_dtype": "float32"}}, {"name": "StatefulPartitionedCall/ssd_mobile_net_v2_fpn_keras_feature_extractor/model/block_2_expand/Conv2D_weights", "shape": [1, 1, 24, 144], "dtype": "float32", "quantization": {"dtype": "uint8", "min": -0.3464613671396293, "scale": 0.0027067294307783537, "original_dtype": "float32"}}, {"name": "StatefulPartitionedCall/ssd_mobile_net_v2_fpn_keras_feature_extractor/model/block_2_expand/Conv2D_bn_offset", "shape": [144], "dtype": "float32", "quantization": {"dtype": "uint8", "min": -2.4794474826139563, "scale": 0.023391013986924114, "original_dtype": "float32"}}, {"name": "StatefulPartitionedCall/ssd_mobile_net_v2_fpn_keras_feature_extractor/model/block_2_depthwise/depthwise_weights", "shape": [3, 3, 144, 1], "dtype": "float32", "quantization": {"dtype": "uint8", "min": -17.234835628434723, "scale": 0.17767871781891467, "original_dtype": "float32"}}, {"name": "StatefulPartitionedCall/ssd_mobile_net_v2_fpn_keras_feature_extractor/model/block_2_depthwise/depthwise_bn_offset", "shape": [144], "dtype": "float32", "quantization": {"dtype": "uint8", "min": -3.295644515168433, "scale": 0.036215873793059704, "original_dtype": "float32"}}, {"name": "StatefulPartitionedCall/ssd_mobile_net_v2_fpn_keras_feature_extractor/model/block_2_project/Conv2D_weights", "shape": [1, 1, 144, 24], "dtype": "float32", "quantization": {"dtype": "uint8", "min": -2.2805886394837325, "scale": 0.016407112514271457, "original_dtype": "float32"}}, {"name": "StatefulPartitionedCall/ssd_mobile_net_v2_fpn_keras_feature_extractor/model/block_2_project/Conv2D_bn_offset", "shape": [24], "dtype": "float32", "quantization": {"dtype": "uint8", "min": -5.947037281709559, "scale": 0.09292245752671185, "original_dtype": "float32"}}, {"name": "StatefulPartitionedCall/ssd_mobile_net_v2_fpn_keras_feature_extractor/model/block_3_expand/Conv2D_weights", "shape": [1, 1, 24, 144], "dtype": "float32", "quantization": {"dtype": "uint8", "min": -0.28436717075460094, "scale": 0.002256882307576198, "original_dtype": "float32"}}, {"name": "StatefulPartitionedCall/ssd_mobile_net_v2_fpn_keras_feature_extractor/model/block_3_expand/Conv2D_bn_offset", "shape": [144], "dtype": "float32", "quantization": {"dtype": "uint8", "min": -2.123713618633794, "scale": 0.02102686751122568, "original_dtype": "float32"}}, {"name": "StatefulPartitionedCall/ssd_mobile_net_v2_fpn_keras_feature_extractor/model/block_3_depthwise/depthwise_weights", "shape": [3, 3, 144, 1], "dtype": "float32", "quantization": {"dtype": "uint8", "min": -3.4139376060635436, "scale": 0.026261058508181105, "original_dtype": "float32"}}, {"name": "StatefulPartitionedCall/ssd_mobile_net_v2_fpn_keras_feature_extractor/model/block_3_depthwise/depthwise_bn_offset", "shape": [144], "dtype": "float32", "quantization": {"dtype": "uint8", "min": -6.642475700378418, "scale": 0.04813388188680013, "original_dtype": "float32"}}, {"name": "StatefulPartitionedCall/ssd_mobile_net_v2_fpn_keras_feature_extractor/model/block_3_project/Conv2D_weights", "shape": [1, 1, 144, 32], "dtype": "float32", "quantization": {"dtype": "uint8", "min": -1.611466475094066, "scale": 0.010464068020091337, "original_dtype": "float32"}}, {"name": "StatefulPartitionedCall/ssd_mobile_net_v2_fpn_keras_feature_extractor/model/block_3_project/Conv2D_bn_offset", "shape": [32], "dtype": "float32", "quantization": {"dtype": "uint8", "min": -10.493290792727004, "scale": 0.0718718547447055, "original_dtype": "float32"}}, {"name": "StatefulPartitionedCall/ssd_mobile_net_v2_fpn_keras_feature_extractor/model/block_4_expand/Conv2D_weights", "shape": [1, 1, 32, 192], "dtype": "float32", "quantization": {"dtype": "uint8", "min": -0.19864231161042756, "scale": 0.0016019541258905448, "original_dtype": "float32"}}, {"name": "StatefulPartitionedCall/ssd_mobile_net_v2_fpn_keras_feature_extractor/model/block_4_expand/Conv2D_bn_offset", "shape": [192], "dtype": "float32", "quantization": {"dtype": "uint8", "min": -1.7046880118987138, "scale": 0.017219070827259736, "original_dtype": "float32"}}, {"name": "StatefulPartitionedCall/ssd_mobile_net_v2_fpn_keras_feature_extractor/model/block_4_depthwise/depthwise_weights", "shape": [3, 3, 192, 1], "dtype": "float32", "quantization": {"dtype": "uint8", "min": -7.251939754860075, "scale": 0.12503344404931163, "original_dtype": "float32"}}, {"name": "StatefulPartitionedCall/ssd_mobile_net_v2_fpn_keras_feature_extractor/model/block_4_depthwise/depthwise_bn_offset", "shape": [192], "dtype": "float32", "quantization": {"dtype": "uint8", "min": -3.2187282029320214, "scale": 0.08253149238287234, "original_dtype": "float32"}}, {"name": "StatefulPartitionedCall/ssd_mobile_net_v2_fpn_keras_feature_extractor/model/block_4_project/Conv2D_weights", "shape": [1, 1, 192, 32], "dtype": "float32", "quantization": {"dtype": "uint8", "min": -1.068506932258606, "scale": 0.008979049850912656, "original_dtype": "float32"}}, {"name": "StatefulPartitionedCall/ssd_mobile_net_v2_fpn_keras_feature_extractor/model/block_4_project/Conv2D_bn_offset", "shape": [32], "dtype": "float32", "quantization": {"dtype": "uint8", "min": -8.96216071914224, "scale": 0.05063367637933469, "original_dtype": "float32"}}, {"name": "StatefulPartitionedCall/ssd_mobile_net_v2_fpn_keras_feature_extractor/model/block_5_expand/Conv2D_weights", "shape": [1, 1, 32, 192], "dtype": "float32", "quantization": {"dtype": "uint8", "min": -0.2131475476657643, "scale": 0.0014801913032344743, "original_dtype": "float32"}}, {"name": "StatefulPartitionedCall/ssd_mobile_net_v2_fpn_keras_feature_extractor/model/block_5_expand/Conv2D_bn_offset", "shape": [192], "dtype": "float32", "quantization": {"dtype": "uint8", "min": -1.545025261710672, "scale": 0.01355285317290063, "original_dtype": "float32"}}, {"name": "StatefulPartitionedCall/ssd_mobile_net_v2_fpn_keras_feature_extractor/model/block_5_depthwise/depthwise_weights", "shape": [3, 3, 192, 1], "dtype": "float32", "quantization": {"dtype": "uint8", "min": -16.27283478905173, "scale": 0.110699556388107, "original_dtype": "float32"}}, {"name": "StatefulPartitionedCall/ssd_mobile_net_v2_fpn_keras_feature_extractor/model/block_5_depthwise/depthwise_bn_offset", "shape": [192], "dtype": "float32", "quantization": {"dtype": "uint8", "min": -9.69601417242312, "scale": 0.09600014032102099, "original_dtype": "float32"}}, {"name": "StatefulPartitionedCall/ssd_mobile_net_v2_fpn_keras_feature_extractor/model/block_5_project/Conv2D_weights", "shape": [1, 1, 192, 32], "dtype": "float32", "quantization": {"dtype": "uint8", "min": -1.1870353231243058, "scale": 0.01211260533800312, "original_dtype": "float32"}}, {"name": "StatefulPartitionedCall/ssd_mobile_net_v2_fpn_keras_feature_extractor/model/block_5_project/Conv2D_bn_offset", "shape": [32], "dtype": "float32", "quantization": {"dtype": "uint8", "min": -4.264505880019244, "scale": 0.06006346309886259, "original_dtype": "float32"}}, {"name": "StatefulPartitionedCall/ssd_mobile_net_v2_fpn_keras_feature_extractor/model/block_6_expand/Conv2D_weights", "shape": [1, 1, 32, 192], "dtype": "float32", "quantization": {"dtype": "uint8", "min": -0.2245481025938894, "scale": 0.0015813246661541508, "original_dtype": "float32"}}, {"name": "StatefulPartitionedCall/ssd_mobile_net_v2_fpn_keras_feature_extractor/model/block_6_expand/Conv2D_bn_offset", "shape": [192], "dtype": "float32", "quantization": {"dtype": "uint8", "min": -1.673387393764421, "scale": 0.01480873799791523, "original_dtype": "float32"}}, {"name": "StatefulPartitionedCall/ssd_mobile_net_v2_fpn_keras_feature_extractor/model/block_6_depthwise/depthwise_weights", "shape": [3, 3, 192, 1], "dtype": "float32", "quantization": {"dtype": "uint8", "min": -3.793067396388335, "scale": 0.03083794631210028, "original_dtype": "float32"}}, {"name": "StatefulPartitionedCall/ssd_mobile_net_v2_fpn_keras_feature_extractor/model/block_6_depthwise/depthwise_bn_offset", "shape": [192], "dtype": "float32", "quantization": {"dtype": "uint8", "min": -2.137652266259287, "scale": 0.03447826235902076, "original_dtype": "float32"}}, {"name": "StatefulPartitionedCall/ssd_mobile_net_v2_fpn_keras_feature_extractor/model/block_6_project/Conv2D_weights", "shape": [1, 1, 192, 64], "dtype": "float32", "quantization": {"dtype": "uint8", "min": -0.9457049416560753, "scale": 0.007565639533248602, "original_dtype": "float32"}}, {"name": "StatefulPartitionedCall/ssd_mobile_net_v2_fpn_keras_feature_extractor/model/block_6_project/Conv2D_bn_offset", "shape": [64], "dtype": "float32", "quantization": {"dtype": "uint8", "min": -9.65678316378126, "scale": 0.08545825808655982, "original_dtype": "float32"}}, {"name": "StatefulPartitionedCall/ssd_mobile_net_v2_fpn_keras_feature_extractor/model/block_7_expand/Conv2D_weights", "shape": [1, 1, 64, 384], "dtype": "float32", "quantization": {"dtype": "uint8", "min": -0.1602224726302951, "scale": 0.0011956900942559335, "original_dtype": "float32"}}, {"name": "StatefulPartitionedCall/ssd_mobile_net_v2_fpn_keras_feature_extractor/model/block_7_expand/Conv2D_bn_offset", "shape": [384], "dtype": "float32", "quantization": {"dtype": "uint8", "min": -1.5135099560606713, "scale": 0.016451195174572514, "original_dtype": "float32"}}, {"name": "StatefulPartitionedCall/ssd_mobile_net_v2_fpn_keras_feature_extractor/model/block_7_depthwise/depthwise_weights", "shape": [3, 3, 384, 1], "dtype": "float32", "quantization": {"dtype": "uint8", "min": -3.9905915503408393, "scale": 0.062352992974075615, "original_dtype": "float32"}}, {"name": "StatefulPartitionedCall/ssd_mobile_net_v2_fpn_keras_feature_extractor/model/block_7_depthwise/depthwise_bn_offset", "shape": [384], "dtype": "float32", "quantization": {"dtype": "uint8", "min": -3.4827758957357964, "scale": 0.027641078537585687, "original_dtype": "float32"}}, {"name": "StatefulPartitionedCall/ssd_mobile_net_v2_fpn_keras_feature_extractor/model/block_7_project/Conv2D_weights", "shape": [1, 1, 384, 64], "dtype": "float32", "quantization": {"dtype": "uint8", "min": -1.4505439066419414, "scale": 0.009935232237273571, "original_dtype": "float32"}}, {"name": "StatefulPartitionedCall/ssd_mobile_net_v2_fpn_keras_feature_extractor/model/block_7_project/Conv2D_bn_offset", "shape": [64], "dtype": "float32", "quantization": {"dtype": "uint8", "min": -5.855788515128341, "scale": 0.03404528206469966, "original_dtype": "float32"}}, {"name": "StatefulPartitionedCall/ssd_mobile_net_v2_fpn_keras_feature_extractor/model/block_8_expand/Conv2D_weights", "shape": [1, 1, 64, 384], "dtype": "float32", "quantization": {"dtype": "uint8", "min": -0.16026793543030235, "scale": 0.00116136185094422, "original_dtype": "float32"}}, {"name": "StatefulPartitionedCall/ssd_mobile_net_v2_fpn_keras_feature_extractor/model/block_8_expand/Conv2D_bn_offset", "shape": [384], "dtype": "float32", "quantization": {"dtype": "uint8", "min": -1.036976743211933, "scale": 0.009258720921535117, "original_dtype": "float32"}}, {"name": "StatefulPartitionedCall/ssd_mobile_net_v2_fpn_keras_feature_extractor/model/block_8_depthwise/depthwise_weights", "shape": [3, 3, 384, 1], "dtype": "float32", "quantization": {"dtype": "uint8", "min": -3.225788275400798, "scale": 0.03795045029883291, "original_dtype": "float32"}}, {"name": "StatefulPartitionedCall/ssd_mobile_net_v2_fpn_keras_feature_extractor/model/block_8_depthwise/depthwise_bn_offset", "shape": [384], "dtype": "float32", "quantization": {"dtype": "uint8", "min": -8.76896063486735, "scale": 0.05158212138157265, "original_dtype": "float32"}}, {"name": "StatefulPartitionedCall/ssd_mobile_net_v2_fpn_keras_feature_extractor/model/block_8_project/Conv2D_weights", "shape": [1, 1, 384, 64], "dtype": "float32", "quantization": {"dtype": "uint8", "min": -1.0814518292744955, "scale": 0.007407204310099284, "original_dtype": "float32"}}, {"name": "StatefulPartitionedCall/ssd_mobile_net_v2_fpn_keras_feature_extractor/model/block_8_project/Conv2D_bn_offset", "shape": [64], "dtype": "float32", "quantization": {"dtype": "uint8", "min": -2.8221058284535125, "scale": 0.024755314284679936, "original_dtype": "float32"}}, {"name": "StatefulPartitionedCall/ssd_mobile_net_v2_fpn_keras_feature_extractor/model/block_9_expand/Conv2D_weights", "shape": [1, 1, 64, 384], "dtype": "float32", "quantization": {"dtype": "uint8", "min": -0.14755876441212262, "scale": 0.001046516059660444, "original_dtype": "float32"}}, {"name": "StatefulPartitionedCall/ssd_mobile_net_v2_fpn_keras_feature_extractor/model/block_9_expand/Conv2D_bn_offset", "shape": [384], "dtype": "float32", "quantization": {"dtype": "uint8", "min": -1.0887600954841166, "scale": 0.010369143766515395, "original_dtype": "float32"}}, {"name": "StatefulPartitionedCall/ssd_mobile_net_v2_fpn_keras_feature_extractor/model/block_9_depthwise/depthwise_weights", "shape": [3, 3, 384, 1], "dtype": "float32", "quantization": {"dtype": "uint8", "min": -6.786743654924281, "scale": 0.041131779726813825, "original_dtype": "float32"}}, {"name": "StatefulPartitionedCall/ssd_mobile_net_v2_fpn_keras_feature_extractor/model/block_9_depthwise/depthwise_bn_offset", "shape": [384], "dtype": "float32", "quantization": {"dtype": "uint8", "min": -6.127530266256893, "scale": 0.04255229351567287, "original_dtype": "float32"}}, {"name": "StatefulPartitionedCall/ssd_mobile_net_v2_fpn_keras_feature_extractor/model/block_9_project/Conv2D_weights", "shape": [1, 1, 384, 64], "dtype": "float32", "quantization": {"dtype": "uint8", "min": -0.9092452979555318, "scale": 0.007514423950045717, "original_dtype": "float32"}}, {"name": "StatefulPartitionedCall/ssd_mobile_net_v2_fpn_keras_feature_extractor/model/block_9_project/Conv2D_bn_offset", "shape": [64], "dtype": "float32", "quantization": {"dtype": "uint8", "min": -3.45502815433577, "scale": 0.025783792196535597, "original_dtype": "float32"}}, {"name": "StatefulPartitionedCall/ssd_mobile_net_v2_fpn_keras_feature_extractor/model/block_10_expand/Conv2D_weights", "shape": [1, 1, 64, 384], "dtype": "float32", "quantization": {"dtype": "uint8", "min": -0.228394536411061, "scale": 0.0014274658525691313, "original_dtype": "float32"}}, {"name": "StatefulPartitionedCall/ssd_mobile_net_v2_fpn_keras_feature_extractor/model/block_10_expand/Conv2D_bn_offset", "shape": [384], "dtype": "float32", "quantization": {"dtype": "uint8", "min": -1.329307581396664, "scale": 0.019265327266618316, "original_dtype": "float32"}}, {"name": "StatefulPartitionedCall/ssd_mobile_net_v2_fpn_keras_feature_extractor/model/block_10_depthwise/depthwise_weights", "shape": [3, 3, 384, 1], "dtype": "float32", "quantization": {"dtype": "uint8", "min": -5.037086075427486, "scale": 0.034500589557722505, "original_dtype": "float32"}}, {"name": "StatefulPartitionedCall/ssd_mobile_net_v2_fpn_keras_feature_extractor/model/block_10_depthwise/depthwise_bn_offset", "shape": [384], "dtype": "float32", "quantization": {"dtype": "uint8", "min": -3.8440388370962704, "scale": 0.06101648947771858, "original_dtype": "float32"}}, {"name": "StatefulPartitionedCall/ssd_mobile_net_v2_fpn_keras_feature_extractor/model/block_10_project/Conv2D_weights", "shape": [1, 1, 384, 96], "dtype": "float32", "quantization": {"dtype": "uint8", "min": -0.6093409657478333, "scale": 0.005120512317208683, "original_dtype": "float32"}}, {"name": "StatefulPartitionedCall/ssd_mobile_net_v2_fpn_keras_feature_extractor/model/block_10_project/Conv2D_bn_offset", "shape": [96], "dtype": "float32", "quantization": {"dtype": "uint8", "min": -4.339048441718606, "scale": 0.03471238753374885, "original_dtype": "float32"}}, {"name": "StatefulPartitionedCall/ssd_mobile_net_v2_fpn_keras_feature_extractor/model/block_11_expand/Conv2D_weights", "shape": [1, 1, 96, 576], "dtype": "float32", "quantization": {"dtype": "uint8", "min": -0.35558171412524053, "scale": 0.002264851682326373, "original_dtype": "float32"}}, {"name": "StatefulPartitionedCall/ssd_mobile_net_v2_fpn_keras_feature_extractor/model/block_11_expand/Conv2D_bn_offset", "shape": [576], "dtype": "float32", "quantization": {"dtype": "uint8", "min": -1.1047823962043313, "scale": 0.011159418143478095, "original_dtype": "float32"}}, {"name": "StatefulPartitionedCall/ssd_mobile_net_v2_fpn_keras_feature_extractor/model/block_11_depthwise/depthwise_weights", "shape": [3, 3, 576, 1], "dtype": "float32", "quantization": {"dtype": "uint8", "min": -4.551581180796903, "scale": 0.033967023737290325, "original_dtype": "float32"}}, {"name": "StatefulPartitionedCall/ssd_mobile_net_v2_fpn_keras_feature_extractor/model/block_11_depthwise/depthwise_bn_offset", "shape": [576], "dtype": "float32", "quantization": {"dtype": "uint8", "min": -4.799185687420415, "scale": 0.04402922649009555, "original_dtype": "float32"}}, {"name": "StatefulPartitionedCall/ssd_mobile_net_v2_fpn_keras_feature_extractor/model/block_11_project/Conv2D_weights", "shape": [1, 1, 576, 96], "dtype": "float32", "quantization": {"dtype": "uint8", "min": -0.5440631380268172, "scale": 0.004730983808928845, "original_dtype": "float32"}}, {"name": "StatefulPartitionedCall/ssd_mobile_net_v2_fpn_keras_feature_extractor/model/block_11_project/Conv2D_bn_offset", "shape": [96], "dtype": "float32", "quantization": {"dtype": "uint8", "min": -3.251074785344741, "scale": 0.02664815397823558, "original_dtype": "float32"}}, {"name": "StatefulPartitionedCall/ssd_mobile_net_v2_fpn_keras_feature_extractor/model/block_12_expand/Conv2D_weights", "shape": [1, 1, 96, 576], "dtype": "float32", "quantization": {"dtype": "uint8", "min": -0.13453506184559244, "scale": 0.0011597850159102796, "original_dtype": "float32"}}, {"name": "StatefulPartitionedCall/ssd_mobile_net_v2_fpn_keras_feature_extractor/model/block_12_expand/Conv2D_bn_offset", "shape": [576], "dtype": "float32", "quantization": {"dtype": "uint8", "min": -1.4694730384677064, "scale": 0.01412954844680487, "original_dtype": "float32"}}, {"name": "StatefulPartitionedCall/ssd_mobile_net_v2_fpn_keras_feature_extractor/model/block_12_depthwise/depthwise_weights", "shape": [3, 3, 576, 1], "dtype": "float32", "quantization": {"dtype": "uint8", "min": -6.393059281741872, "scale": 0.05197609172147863, "original_dtype": "float32"}}, {"name": "StatefulPartitionedCall/ssd_mobile_net_v2_fpn_keras_feature_extractor/model/block_12_depthwise/depthwise_bn_offset", "shape": [576], "dtype": "float32", "quantization": {"dtype": "uint8", "min": -8.695537847631119, "scale": 0.058359314413631666, "original_dtype": "float32"}}, {"name": "StatefulPartitionedCall/ssd_mobile_net_v2_fpn_keras_feature_extractor/model/block_12_project/Conv2D_weights", "shape": [1, 1, 576, 96], "dtype": "float32", "quantization": {"dtype": "uint8", "min": -1.3687661671171, "scale": 0.010291474940730076, "original_dtype": "float32"}}, {"name": "StatefulPartitionedCall/ssd_mobile_net_v2_fpn_keras_feature_extractor/model/block_12_project/Conv2D_bn_offset", "shape": [96], "dtype": "float32", "quantization": {"dtype": "uint8", "min": -7.070470907173904, "scale": 0.06798529718436447, "original_dtype": "float32"}}, {"name": "StatefulPartitionedCall/ssd_mobile_net_v2_fpn_keras_feature_extractor/model/block_13_expand/Conv2D_weights", "shape": [1, 1, 96, 576], "dtype": "float32", "quantization": {"dtype": "uint8", "min": -0.17924364892875447, "scale": 0.0013682721292271334, "original_dtype": "float32"}}, {"name": "StatefulPartitionedCall/ssd_mobile_net_v2_fpn_keras_feature_extractor/model/block_13_expand/Conv2D_bn_offset", "shape": [576], "dtype": "float32", "quantization": {"dtype": "uint8", "min": -1.871280401360755, "scale": 0.014970243210886039, "original_dtype": "float32"}}, {"name": "StatefulPartitionedCall/ssd_mobile_net_v2_fpn_keras_feature_extractor/model/block_13_depthwise/depthwise_weights", "shape": [3, 3, 576, 1], "dtype": "float32", "quantization": {"dtype": "uint8", "min": -1.7039125849218928, "scale": 0.022128734869115492, "original_dtype": "float32"}}, {"name": "StatefulPartitionedCall/ssd_mobile_net_v2_fpn_keras_feature_extractor/model/block_13_depthwise/depthwise_bn_offset", "shape": [576], "dtype": "float32", "quantization": {"dtype": "uint8", "min": -3.8455674788531136, "scale": 0.04578056522444183, "original_dtype": "float32"}}, {"name": "StatefulPartitionedCall/ssd_mobile_net_v2_fpn_keras_feature_extractor/model/block_13_project/Conv2D_weights", "shape": [1, 1, 576, 160], "dtype": "float32", "quantization": {"dtype": "uint8", "min": -0.6206905047098796, "scale": 0.004563900769925585, "original_dtype": "float32"}}, {"name": "StatefulPartitionedCall/ssd_mobile_net_v2_fpn_keras_feature_extractor/model/block_13_project/Conv2D_bn_offset", "shape": [160], "dtype": "float32", "quantization": {"dtype": "uint8", "min": -8.11396001927993, "scale": 0.057140563516055835, "original_dtype": "float32"}}, {"name": "StatefulPartitionedCall/ssd_mobile_net_v2_fpn_keras_feature_extractor/model/block_14_expand/Conv2D_weights", "shape": [1, 1, 160, 960], "dtype": "float32", "quantization": {"dtype": "uint8", "min": -0.23782433622023638, "scale": 0.0018016995168199726, "original_dtype": "float32"}}, {"name": "StatefulPartitionedCall/ssd_mobile_net_v2_fpn_keras_feature_extractor/model/block_14_expand/Conv2D_bn_offset", "shape": [960], "dtype": "float32", "quantization": {"dtype": "uint8", "min": -1.5883807285159242, "scale": 0.01620796661750943, "original_dtype": "float32"}}, {"name": "StatefulPartitionedCall/ssd_mobile_net_v2_fpn_keras_feature_extractor/model/block_14_depthwise/depthwise_weights", "shape": [3, 3, 960, 1], "dtype": "float32", "quantization": {"dtype": "uint8", "min": -5.188692519244025, "scale": 0.04397197050206801, "original_dtype": "float32"}}, {"name": "StatefulPartitionedCall/ssd_mobile_net_v2_fpn_keras_feature_extractor/model/block_14_depthwise/depthwise_bn_offset", "shape": [960], "dtype": "float32", "quantization": {"dtype": "uint8", "min": -6.850952541126924, "scale": 0.04567301694084616, "original_dtype": "float32"}}, {"name": "StatefulPartitionedCall/ssd_mobile_net_v2_fpn_keras_feature_extractor/model/block_14_project/Conv2D_weights", "shape": [1, 1, 960, 160], "dtype": "float32", "quantization": {"dtype": "uint8", "min": -0.8058275297576306, "scale": 0.005881952771953508, "original_dtype": "float32"}}, {"name": "StatefulPartitionedCall/ssd_mobile_net_v2_fpn_keras_feature_extractor/model/block_14_project/Conv2D_bn_offset", "shape": [160], "dtype": "float32", "quantization": {"dtype": "uint8", "min": -3.5809893841836966, "scale": 0.03113903812333649, "original_dtype": "float32"}}, {"name": "StatefulPartitionedCall/ssd_mobile_net_v2_fpn_keras_feature_extractor/model/block_15_expand/Conv2D_weights", "shape": [1, 1, 160, 960], "dtype": "float32", "quantization": {"dtype": "uint8", "min": -0.13752389059347267, "scale": 0.0010828652802635642, "original_dtype": "float32"}}, {"name": "StatefulPartitionedCall/ssd_mobile_net_v2_fpn_keras_feature_extractor/model/block_15_expand/Conv2D_bn_offset", "shape": [960], "dtype": "float32", "quantization": {"dtype": "uint8", "min": -1.931910729408264, "scale": 0.013701494534810383, "original_dtype": "float32"}}, {"name": "StatefulPartitionedCall/ssd_mobile_net_v2_fpn_keras_feature_extractor/model/block_15_depthwise/depthwise_weights", "shape": [3, 3, 960, 1], "dtype": "float32", "quantization": {"dtype": "uint8", "min": -4.742657672657686, "scale": 0.036764788160137105, "original_dtype": "float32"}}, {"name": "StatefulPartitionedCall/ssd_mobile_net_v2_fpn_keras_feature_extractor/model/block_15_depthwise/depthwise_bn_offset", "shape": [960], "dtype": "float32", "quantization": {"dtype": "uint8", "min": -8.452752390094831, "scale": 0.047487372978060854, "original_dtype": "float32"}}, {"name": "StatefulPartitionedCall/ssd_mobile_net_v2_fpn_keras_feature_extractor/model/block_15_project/Conv2D_weights", "shape": [1, 1, 960, 160], "dtype": "float32", "quantization": {"dtype": "uint8", "min": -1.7643918593724568, "scale": 0.014115134874979654, "original_dtype": "float32"}}, {"name": "StatefulPartitionedCall/ssd_mobile_net_v2_fpn_keras_feature_extractor/model/block_15_project/Conv2D_bn_offset", "shape": [160], "dtype": "float32", "quantization": {"dtype": "uint8", "min": -8.526625083474553, "scale": 0.06047251832251455, "original_dtype": "float32"}}, {"name": "StatefulPartitionedCall/ssd_mobile_net_v2_fpn_keras_feature_extractor/model/block_16_expand/Conv2D_weights", "shape": [1, 1, 160, 960], "dtype": "float32", "quantization": {"dtype": "uint8", "min": -0.09373081431669347, "scale": 0.0007810901193057789, "original_dtype": "float32"}}, {"name": "StatefulPartitionedCall/ssd_mobile_net_v2_fpn_keras_feature_extractor/model/block_16_expand/Conv2D_bn_offset", "shape": [960], "dtype": "float32", "quantization": {"dtype": "uint8", "min": -1.6141009251276652, "scale": 0.014808265368143718, "original_dtype": "float32"}}, {"name": "StatefulPartitionedCall/ssd_mobile_net_v2_fpn_keras_feature_extractor/model/block_16_depthwise/depthwise_weights", "shape": [3, 3, 960, 1], "dtype": "float32", "quantization": {"dtype": "uint8", "min": -4.51642634821873, "scale": 0.04516426348218731, "original_dtype": "float32"}}, {"name": "StatefulPartitionedCall/ssd_mobile_net_v2_fpn_keras_feature_extractor/model/block_16_depthwise/depthwise_bn_offset", "shape": [960], "dtype": "float32", "quantization": {"dtype": "uint8", "min": -4.993037504308364, "scale": 0.05201080733654546, "original_dtype": "float32"}}, {"name": "StatefulPartitionedCall/ssd_mobile_net_v2_fpn_keras_feature_extractor/model/block_16_project/Conv2D_weights", "shape": [1, 1, 960, 320], "dtype": "float32", "quantization": {"dtype": "uint8", "min": -0.3984078750890844, "scale": 0.0027860690565670236, "original_dtype": "float32"}}, {"name": "StatefulPartitionedCall/ssd_mobile_net_v2_fpn_keras_feature_extractor/model/block_16_project/Conv2D_bn_offset", "shape": [320], "dtype": "float32", "quantization": {"dtype": "uint8", "min": -4.493581949495802, "scale": 0.03713704090492398, "original_dtype": "float32"}}, {"name": "StatefulPartitionedCall/ssd_mobile_net_v2_fpn_keras_feature_extractor/model/Conv_1/Conv2D_weights", "shape": [1, 1, 320, 1280], "dtype": "float32", "quantization": {"dtype": "uint8", "min": -0.5014123664182775, "scale": 0.003633422945059982, "original_dtype": "float32"}}, {"name": "StatefulPartitionedCall/ssd_mobile_net_v2_fpn_keras_feature_extractor/model/Conv_1/Conv2D_bn_offset", "shape": [1280], "dtype": "float32", "quantization": {"dtype": "uint8", "min": -4.887740135192871, "scale": 0.005386039322497798, "original_dtype": "float32"}}, {"name": "StatefulPartitionedCall/WeightSharedConvolutionalBoxPredictor/PredictionTower/conv2d_0/separable_conv2d_2_weights", "shape": [1, 1, 128, 128], "dtype": "float32", "quantization": {"dtype": "uint8", "min": -0.10367926996128232, "scale": 0.000849830081649855, "original_dtype": "float32"}}, {"name": "StatefulPartitionedCall/WeightSharedConvolutionalBoxPredictor/PredictionTower/conv2d_0/separable_conv2d_2_bn_offset", "shape": [128], "dtype": "float32", "quantization": {"dtype": "uint8", "min": -0.596396298268262, "scale": 0.005372939624038397, "original_dtype": "float32"}}, {"name": "StatefulPartitionedCall/ssd_mobile_net_v2_fpn_keras_feature_extractor/bottom_up_Conv2d_20_depthwise_conv/separable_conv2d_weights", "shape": [1, 1, 128, 128], "dtype": "float32", "quantization": {"dtype": "uint8", "min": -0.21800997794843185, "scale": 0.001744079823587455, "original_dtype": "float32"}}, {"name": "StatefulPartitionedCall/ssd_mobile_net_v2_fpn_keras_feature_extractor/bottom_up_Conv2d_20_depthwise_conv/separable_conv2d_bn_offset", "shape": [128], "dtype": "float32", "quantization": {"dtype": "uint8", "min": -0.9193578479336757, "scale": 0.007354862783469406, "original_dtype": "float32"}}, {"name": "StatefulPartitionedCall/WeightSharedConvolutionalBoxPredictor/PredictionTower/conv2d_1/separable_conv2d_2_weights", "shape": [1, 1, 128, 128], "dtype": "float32", "quantization": {"dtype": "uint8", "min": -0.6896521110160678, "scale": 0.005561710572710224, "original_dtype": "float32"}}, {"name": "StatefulPartitionedCall/WeightSharedConvolutionalBoxPredictor/PredictionTower/conv2d_1/separable_conv2d_2_bn_offset", "shape": [128], "dtype": "float32", "quantization": {"dtype": "uint8", "min": -1.4149401505788166, "scale": 0.01334849198659261, "original_dtype": "float32"}}, {"name": "StatefulPartitionedCall/WeightSharedConvolutionalBoxPredictor/PredictionTower/conv2d_0/separable_conv2d_3_weights", "shape": [1, 1, 128, 128], "dtype": "float32", "quantization": {"dtype": "uint8", "min": -0.9627770702044169, "scale": 0.008090563615163167, "original_dtype": "float32"}}, {"name": "StatefulPartitionedCall/WeightSharedConvolutionalBoxPredictor/PredictionTower/conv2d_0/separable_conv2d_3_bn_offset", "shape": [128], "dtype": "float32", "quantization": {"dtype": "uint8", "min": -1.2070337192684997, "scale": 0.01231667060478061, "original_dtype": "float32"}}, {"name": "StatefulPartitionedCall/ssd_mobile_net_v2_fpn_keras_feature_extractor/bottom_up_Conv2d_21_depthwise_conv/separable_conv2d_weights", "shape": [1, 1, 128, 128], "dtype": "float32", "quantization": {"dtype": "uint8", "min": -4.65998711492501, "scale": 0.03669281192854339, "original_dtype": "float32"}}, {"name": "StatefulPartitionedCall/ssd_mobile_net_v2_fpn_keras_feature_extractor/bottom_up_Conv2d_21_depthwise_conv/separable_conv2d_bn_offset", "shape": [128], "dtype": "float32", "quantization": {"dtype": "uint8", "min": -0.5919115585439345, "scale": 0.0044504628461949965, "original_dtype": "float32"}}, {"name": "StatefulPartitionedCall/ssd_mobile_net_v2_fpn_keras_feature_extractor/FeatureMaps/top_down/smoothing_2_depthwise_conv/separable_conv2d_weights", "shape": [1, 1, 128, 128], "dtype": "float32", "quantization": {"dtype": "uint8", "min": -0.20081659590496737, "scale": 0.0016326552512598972, "original_dtype": "float32"}}, {"name": "StatefulPartitionedCall/ssd_mobile_net_v2_fpn_keras_feature_extractor/FeatureMaps/top_down/smoothing_2_depthwise_conv/separable_conv2d_bn_offset", "shape": [128], "dtype": "float32", "quantization": {"dtype": "uint8", "min": -0.5888300624548221, "scale": 0.007747763979668711, "original_dtype": "float32"}}, {"name": "StatefulPartitionedCall/WeightSharedConvolutionalBoxPredictor/PredictionTower/conv2d_2/separable_conv2d_2_weights", "shape": [1, 1, 128, 128], "dtype": "float32", "quantization": {"dtype": "uint8", "min": -0.6351724736830768, "scale": 0.005671182800741757, "original_dtype": "float32"}}, {"name": "StatefulPartitionedCall/WeightSharedConvolutionalBoxPredictor/PredictionTower/conv2d_2/separable_conv2d_2_bn_offset", "shape": [128], "dtype": "float32", "quantization": {"dtype": "uint8", "min": -1.4046128749847413, "scale": 0.013770714460634718, "original_dtype": "float32"}}, {"name": "StatefulPartitionedCall/WeightSharedConvolutionalBoxPredictor/PredictionTower/conv2d_1/separable_conv2d_3_weights", "shape": [1, 1, 128, 128], "dtype": "float32", "quantization": {"dtype": "uint8", "min": -0.8136648986853805, "scale": 0.006895465243096445, "original_dtype": "float32"}}, {"name": "StatefulPartitionedCall/WeightSharedConvolutionalBoxPredictor/PredictionTower/conv2d_1/separable_conv2d_3_bn_offset", "shape": [128], "dtype": "float32", "quantization": {"dtype": "uint8", "min": -1.2619305185243195, "scale": 0.011167526712604597, "original_dtype": "float32"}}, {"name": "StatefulPartitionedCall/WeightSharedConvolutionalBoxPredictor/PredictionTower/conv2d_0/separable_conv2d_4_weights", "shape": [1, 1, 128, 128], "dtype": "float32", "quantization": {"dtype": "uint8", "min": -2.927303538602941, "scale": 0.030492745193780636, "original_dtype": "float32"}}, {"name": "StatefulPartitionedCall/WeightSharedConvolutionalBoxPredictor/PredictionTower/conv2d_0/separable_conv2d_4_bn_offset", "shape": [128], "dtype": "float32", "quantization": {"dtype": "uint8", "min": -1.0427935880773207, "scale": 0.010862433209138758, "original_dtype": "float32"}}, {"name": "StatefulPartitionedCall/WeightSharedConvolutionalBoxPredictor/PredictionTower/conv2d_0/separable_conv2d_1_weights", "shape": [1, 1, 128, 128], "dtype": "float32", "quantization": {"dtype": "uint8", "min": -0.6258711471277124, "scale": 0.005088383309981402, "original_dtype": "float32"}}, {"name": "StatefulPartitionedCall/WeightSharedConvolutionalBoxPredictor/PredictionTower/conv2d_0/separable_conv2d_1_bn_offset", "shape": [128], "dtype": "float32", "quantization": {"dtype": "uint8", "min": -1.1705082818573596, "scale": 0.011943962059768975, "original_dtype": "float32"}}, {"name": "StatefulPartitionedCall/WeightSharedConvolutionalBoxPredictor/PredictionTower/conv2d_3/separable_conv2d_2_weights", "shape": [1, 1, 128, 128], "dtype": "float32", "quantization": {"dtype": "uint8", "min": -0.618508005843443, "scale": 0.00528639321233712, "original_dtype": "float32"}}, {"name": "StatefulPartitionedCall/WeightSharedConvolutionalBoxPredictor/PredictionTower/conv2d_3/separable_conv2d_2_bn_offset", "shape": [128], "dtype": "float32", "quantization": {"dtype": "uint8", "min": -1.191164192498899, "scale": 0.011453501850950952, "original_dtype": "float32"}}, {"name": "StatefulPartitionedCall/WeightSharedConvolutionalBoxPredictor/PredictionTower/conv2d_2/separable_conv2d_3_weights", "shape": [1, 1, 128, 128], "dtype": "float32", "quantization": {"dtype": "uint8", "min": -0.7772737629273359, "scale": 0.006878528875463149, "original_dtype": "float32"}}, {"name": "StatefulPartitionedCall/WeightSharedConvolutionalBoxPredictor/PredictionTower/conv2d_2/separable_conv2d_3_bn_offset", "shape": [128], "dtype": "float32", "quantization": {"dtype": "uint8", "min": -1.2745587779026406, "scale": 0.01448362247616637, "original_dtype": "float32"}}, {"name": "StatefulPartitionedCall/WeightSharedConvolutionalBoxPredictor/PredictionTower/conv2d_1/separable_conv2d_4_weights", "shape": [1, 1, 128, 128], "dtype": "float32", "quantization": {"dtype": "uint8", "min": -1.47581781873516, "scale": 0.011013565811456419, "original_dtype": "float32"}}, {"name": "StatefulPartitionedCall/WeightSharedConvolutionalBoxPredictor/PredictionTower/conv2d_1/separable_conv2d_4_bn_offset", "shape": [128], "dtype": "float32", "quantization": {"dtype": "uint8", "min": -2.064754495433733, "scale": 0.017954386916815068, "original_dtype": "float32"}}, {"name": "StatefulPartitionedCall/WeightSharedConvolutionalBoxPredictor/PredictionTower/conv2d_1/separable_conv2d_1_weights", "shape": [1, 1, 128, 128], "dtype": "float32", "quantization": {"dtype": "uint8", "min": -0.6910499306286083, "scale": 0.005664343693677117, "original_dtype": "float32"}}, {"name": "StatefulPartitionedCall/WeightSharedConvolutionalBoxPredictor/PredictionTower/conv2d_1/separable_conv2d_1_bn_offset", "shape": [128], "dtype": "float32", "quantization": {"dtype": "uint8", "min": -1.4581283966700236, "scale": 0.01337732474009196, "original_dtype": "float32"}}, {"name": "StatefulPartitionedCall/WeightSharedConvolutionalBoxPredictor/PredictionTower/conv2d_3/separable_conv2d_3_weights", "shape": [1, 1, 128, 128], "dtype": "float32", "quantization": {"dtype": "uint8", "min": -0.7636869467940985, "scale": 0.006818633453518737, "original_dtype": "float32"}}, {"name": "StatefulPartitionedCall/WeightSharedConvolutionalBoxPredictor/PredictionTower/conv2d_3/separable_conv2d_3_bn_offset", "shape": [128], "dtype": "float32", "quantization": {"dtype": "uint8", "min": -1.0704743721905876, "scale": 0.01189415969100653, "original_dtype": "float32"}}, {"name": "StatefulPartitionedCall/WeightSharedConvolutionalBoxPredictor/PredictionTower/conv2d_2/separable_conv2d_4_weights", "shape": [1, 1, 128, 128], "dtype": "float32", "quantization": {"dtype": "uint8", "min": -1.4344886330997242, "scale": 0.011120066923253676, "original_dtype": "float32"}}, {"name": "StatefulPartitionedCall/WeightSharedConvolutionalBoxPredictor/PredictionTower/conv2d_2/separable_conv2d_4_bn_offset", "shape": [128], "dtype": "float32", "quantization": {"dtype": "uint8", "min": -1.8148529482822793, "scale": 0.017121254229078106, "original_dtype": "float32"}}, {"name": "StatefulPartitionedCall/ssd_mobile_net_v2_fpn_keras_feature_extractor/FeatureMaps/top_down/smoothing_1_depthwise_conv/separable_conv2d_weights", "shape": [1, 1, 128, 128], "dtype": "float32", "quantization": {"dtype": "uint8", "min": -0.6762299628818736, "scale": 0.005497804576275396, "original_dtype": "float32"}}, {"name": "StatefulPartitionedCall/ssd_mobile_net_v2_fpn_keras_feature_extractor/FeatureMaps/top_down/smoothing_1_depthwise_conv/separable_conv2d_bn_offset", "shape": [128], "dtype": "float32", "quantization": {"dtype": "uint8", "min": -0.873784340129179, "scale": 0.0076647749134138516, "original_dtype": "float32"}}, {"name": "StatefulPartitionedCall/WeightSharedConvolutionalBoxPredictor/PredictionTower/conv2d_2/separable_conv2d_1_weights", "shape": [1, 1, 128, 128], "dtype": "float32", "quantization": {"dtype": "uint8", "min": -0.6342508979872161, "scale": 0.005467680155062208, "original_dtype": "float32"}}, {"name": "StatefulPartitionedCall/WeightSharedConvolutionalBoxPredictor/PredictionTower/conv2d_2/separable_conv2d_1_bn_offset", "shape": [128], "dtype": "float32", "quantization": {"dtype": "uint8", "min": -1.1547480943156223, "scale": 0.012689539497973872, "original_dtype": "float32"}}, {"name": "StatefulPartitionedCall/WeightSharedConvolutionalBoxPredictor/PredictionTower/conv2d_3/separable_conv2d_4_weights", "shape": [1, 1, 128, 128], "dtype": "float32", "quantization": {"dtype": "uint8", "min": -1.3208187495960908, "scale": 0.011193379233865177, "original_dtype": "float32"}}, {"name": "StatefulPartitionedCall/WeightSharedConvolutionalBoxPredictor/PredictionTower/conv2d_3/separable_conv2d_4_bn_offset", "shape": [128], "dtype": "float32", "quantization": {"dtype": "uint8", "min": -1.825366538178687, "scale": 0.015469207950666839, "original_dtype": "float32"}}, {"name": "StatefulPartitionedCall/WeightSharedConvolutionalBoxPredictor/PredictionTower/conv2d_0/separable_conv2d_weights", "shape": [1, 1, 128, 128], "dtype": "float32", "quantization": {"dtype": "uint8", "min": -1.0050230755525478, "scale": 0.008517144708072438, "original_dtype": "float32"}}, {"name": "StatefulPartitionedCall/WeightSharedConvolutionalBoxPredictor/PredictionTower/conv2d_0/separable_conv2d_bn_offset", "shape": [128], "dtype": "float32", "quantization": {"dtype": "uint8", "min": -1.0559506061030368, "scale": 0.0101533712125292, "original_dtype": "float32"}}, {"name": "StatefulPartitionedCall/WeightSharedConvolutionalBoxPredictor/PredictionTower/conv2d_3/separable_conv2d_1_weights", "shape": [1, 1, 128, 128], "dtype": "float32", "quantization": {"dtype": "uint8", "min": -0.6581742384854484, "scale": 0.005929497644013049, "original_dtype": "float32"}}, {"name": "StatefulPartitionedCall/WeightSharedConvolutionalBoxPredictor/PredictionTower/conv2d_3/separable_conv2d_1_bn_offset", "shape": [128], "dtype": "float32", "quantization": {"dtype": "uint8", "min": -1.1298456079819623, "scale": 0.011769225083145441, "original_dtype": "float32"}}, {"name": "StatefulPartitionedCall/WeightSharedConvolutionalBoxPredictor/PredictionTower/conv2d_1/separable_conv2d_weights", "shape": [1, 1, 128, 128], "dtype": "float32", "quantization": {"dtype": "uint8", "min": -0.8740664968303605, "scale": 0.007048923361535166, "original_dtype": "float32"}}, {"name": "StatefulPartitionedCall/WeightSharedConvolutionalBoxPredictor/PredictionTower/conv2d_1/separable_conv2d_bn_offset", "shape": [128], "dtype": "float32", "quantization": {"dtype": "uint8", "min": -1.8049686431884766, "scale": 0.013674004872639974, "original_dtype": "float32"}}, {"name": "StatefulPartitionedCall/WeightSharedConvolutionalBoxPredictor/PredictionTower/conv2d_2/separable_conv2d_weights", "shape": [1, 1, 128, 128], "dtype": "float32", "quantization": {"dtype": "uint8", "min": -0.7771807894987218, "scale": 0.006318543004054649, "original_dtype": "float32"}}, {"name": "StatefulPartitionedCall/WeightSharedConvolutionalBoxPredictor/PredictionTower/conv2d_2/separable_conv2d_bn_offset", "shape": [128], "dtype": "float32", "quantization": {"dtype": "uint8", "min": -0.8379800674962062, "scale": 0.010607342626534256, "original_dtype": "float32"}}, {"name": "StatefulPartitionedCall/WeightSharedConvolutionalBoxPredictor/PredictionTower/conv2d_3/separable_conv2d_weights", "shape": [1, 1, 128, 128], "dtype": "float32", "quantization": {"dtype": "uint8", "min": -0.8064462245679369, "scale": 0.007136692252813601, "original_dtype": "float32"}}, {"name": "StatefulPartitionedCall/WeightSharedConvolutionalBoxPredictor/PredictionTower/conv2d_3/separable_conv2d_bn_offset", "shape": [128], "dtype": "float32", "quantization": {"dtype": "uint8", "min": -1.085255848192701, "scale": 0.010238262718799067, "original_dtype": "float32"}}, {"name": "StatefulPartitionedCall/ssd_mobile_net_v2_fpn_keras_feature_extractor/FeatureMaps/top_down/nearest_neighbor_upsampling/nearest_neighbor_upsampling/ArithmeticOptimizer/ReplacePackWithTileReshape_Multiples_w_stack", "shape": [4], "dtype": "int32"}, {"name": "StatefulPartitionedCall/ssd_mobile_net_v2_fpn_keras_feature_extractor/FeatureMaps/top_down/nearest_neighbor_upsampling/nearest_neighbor_upsampling/ArithmeticOptimizer/ReplacePackWithTileReshape_Multiples_h_stack", "shape": [4], "dtype": "int32"}, {"name": "StatefulPartitionedCall/ssd_mobile_net_v2_fpn_keras_feature_extractor/FeatureMaps/top_down/nearest_neighbor_upsampling/nearest_neighbor_upsampling_1/ArithmeticOptimizer/ReplacePackWithTileReshape_Multiples_w_stack", "shape": [4], "dtype": "int32"}, {"name": "StatefulPartitionedCall/ssd_mobile_net_v2_fpn_keras_feature_extractor/FeatureMaps/top_down/nearest_neighbor_upsampling/nearest_neighbor_upsampling_1/ArithmeticOptimizer/ReplacePackWithTileReshape_Multiples_h_stack", "shape": [4], "dtype": "int32"}, {"name": "ConstantFolding/StatefulPartitionedCall/Postprocessor/BatchMultiClassNonMaxSuppression/stack_12_const_axis", "shape": [], "dtype": "int32"}, {"name": "ConstantFolding/StatefulPartitionedCall/Postprocessor/BatchMultiClassNonMaxSuppression/PadOrClipBoxList/Slice_5/size_const_axis", "shape": [], "dtype": "int32"}, {"name": "ConstantFolding/StatefulPartitionedCall/Postprocessor/BatchMultiClassNonMaxSuppression/PadOrClipBoxList/Slice_1/size_const_axis", "shape": [], "dtype": "int32"}, {"name": "ConstantFolding/StatefulPartitionedCall/Postprocessor/BatchMultiClassNonMaxSuppression/PadOrClipBoxList/Slice_3/size_const_axis", "shape": [], "dtype": "int32"}, {"name": "ConstantFolding/StatefulPartitionedCall/Postprocessor/BatchMultiClassNonMaxSuppression/PadOrClipBoxList/stack_5/values_1_const_axis", "shape": [], "dtype": "int32"}, {"name": "ConstantFolding/StatefulPartitionedCall/Postprocessor/BatchMultiClassNonMaxSuppression/PadOrClipBoxList/stack_1/values_1_const_axis", "shape": [], "dtype": "int32"}, {"name": "ConstantFolding/StatefulPartitionedCall/Postprocessor/BatchMultiClassNonMaxSuppression/PadOrClipBoxList/stack_3/values_1_const_axis", "shape": [], "dtype": "int32"}, {"name": "ConstantFolding/StatefulPartitionedCall/Postprocessor/BatchMultiClassNonMaxSuppression/stack_11_const_axis", "shape": [], "dtype": "int32"}, {"name": "ConstantFolding/StatefulPartitionedCall/Postprocessor/BatchMultiClassNonMaxSuppression/stack_6_const_axis", "shape": [], "dtype": "int32"}, {"name": "ConstantFolding/StatefulPartitionedCall/Postprocessor/BatchMultiClassNonMaxSuppression/stack_8_const_axis", "shape": [], "dtype": "int32"}, {"name": "ConstantFolding/StatefulPartitionedCall/Postprocessor/BatchMultiClassNonMaxSuppression/stack_7_const_axis", "shape": [], "dtype": "int32"}, {"name": "ConstantFolding/StatefulPartitionedCall/Postprocessor/BatchMultiClassNonMaxSuppression/stack_10_const_axis", "shape": [], "dtype": "int32"}, {"name": "__inference_map_while_cond_7864_248/map/while/Less/y", "shape": [], "dtype": "int32"}, {"name": "__inference_map_while_body_7865_4446/map/while/add/y", "shape": [], "dtype": "int32"}, {"name": "__inference_map_while_body_7865_4446/map/while/Preprocessor/mul/x", "shape": [], "dtype": "float32", "quantization": {"dtype": "uint8", "min": 0.007843137718737125, "scale": 1.0, "original_dtype": "float32"}}, {"name": "__inference_map_while_body_7865_4446/map/while/TensorArrayV2Read/TensorListGetItem/element_shape", "shape": [3], "dtype": "int32"}, {"name": "__inference_map_while_body_7865_4446/map/while/strided_slice/stack", "shape": [4], "dtype": "int32"}, {"name": "__inference_map_while_body_7865_4446/map/while/strided_slice/stack_1", "shape": [4], "dtype": "int32"}, {"name": "__inference_map_while_body_7865_4446/map/while/strided_slice/stack_2", "shape": [4], "dtype": "int32"}, {"name": "__inference_map_while_body_7865_4446/map/while/Preprocessor/sub/y", "shape": [], "dtype": "float32", "quantization": {"dtype": "uint8", "min": 1.0, "scale": 1.0, "original_dtype": "float32"}}, {"name": "__inference_map_while_body_7865_4446/map/while/Preprocessor/ResizeImage/resize/ExpandDims/dim", "shape": [], "dtype": "int32"}, {"name": "__inference_map_while_body_7865_4446/map/while/Preprocessor/ResizeImage/stack", "shape": [2], "dtype": "int32"}, {"name": "__inference_map_while_body_7865_4446/map/while/strided_slice_1/stack", "shape": [1], "dtype": "int32"}, {"name": "__inference_map_while_body_7865_4446/map/while/strided_slice_1/stack_1", "shape": [1], "dtype": "int32"}, {"name": "__inference_map_while_body_7865_4446/map/while/strided_slice_1/stack_2", "shape": [1], "dtype": "int32"}, {"name": "__inference_map_while_body_7865_4446/map/while/strided_slice_2", "shape": [3], "dtype": "int32"}, {"name": "__inference_map_while_body_7865_4446/map/while/add_1/y", "shape": [], "dtype": "int32"}, {"name": "__inference_map_while_body_7865_4446/ConstantFolding/map/while/Preprocessor/stack_const_axis", "shape": [], "dtype": "int32"}]}]}